best_model.pth (torch, 369890 bytes, 21 tensors)

fc1.weight f4 [256, 178]
000000 1d d4 36 3d 5f f2 1b bd a6 0d 34 3c 23 6c a4 bc
       0.04463588 -0.03807294 0.010989582 -0.020071095
000010 8b 30 af 3c af b4 0e bd ba 48 9e 3d dc ec a2 3d
       0.021385452 -0.034840282 0.07728715 0.079553336
000020 f3 68 05 bc 15 76 e9 3c bb 14 42 bd 09 ce 91 bd
       -0.008142698 0.028498689 -0.04738305 -0.07119376
000030 00 ec 2b 3c 8a c1 02 bd 14 1a 58 bc f1 c6 4b bd
       0.0104932785 -0.031922854 -0.013189811 -0.049750272
000040 16 14 db bc 08 42 4e 3d 0c 54 10 bd 81 38 73 3b
       -0.026742976 0.05035594 -0.035236403 0.0037112536
000050 fe 76 4f 3d 70 f3 61 3b 28 05 41 bd d4 c9 2e 3d
       0.05065059 0.0034477375 -0.047124058 0.042672947
000060 1b e5 a2 3c fa 5b 09 bd ed 10 a5 bd 1b ef 02 bd
       0.019884637 -0.03353498 -0.08059869 -0.03196631
000070 6e d2 1b 3d 1b a1 95 bd 57 a3 5a 3c 02 7e 9e bd
       0.03804248 -0.07306119 0.013344607 -0.07738878
000080 a3 54 28 3d 2f 51 48 bd a5 c7 4b bb b6 3d bb 3c
       0.04109634 -0.048905548 -0.003109434 0.022856575
000090 ad 88 82 bb 61 ef 94 bc 20 0f 93 3d ed ed f0 3c
       -0.003983578 -0.018180551 0.07180619 0.029410327
0000a0 46 37 dc 3c 07 6e 3f 3d 6b f8 87 3d b2 22 cf 3d
       0.026881825 0.04673579 0.06639179 0.101140395
0000b0 a3 5d d1 3d 23 bd 36 3d 4a 90 86 3d 7b 39 a4 3d
       0.10222938 0.04461397 0.0657049 0.08018776
0000c0 82 a5 87 3d a2 16 06 bd bf 21 6f bd 35 9e bd bc
       0.06623365 -0.032736428 -0.058381792 -0.023146728
0000d0 ff 87 0d 3d ae 6b 43 bd 13 fb 0b 3d ee 2f 92 3c
       0.034553524 -0.047710113 0.03417499 0.01784512
0000e0 e1 f2 64 bc 12 65 83 bb f8 17 95 3c 22 1c 51 bd
       -0.0139739225 -0.0040098513 0.018199906 -0.05105222
0000f0 93 ca cd bc 19 20 d0 3c 55 27 8a 3d b9 6c 81 bd
       -0.025121009 0.02540593 0.06745783 -0.06319565
000100 fa 5b 0c bd b1 13 f5 ba 9e ae d6 bc e7 76 3b bd
       -0.034267403 -0.0018697885 -0.02620631 -0.04576769
000110 9e 54 44 3d 58 7a 20 bd ae f6 6e 3d 50 4f 86 3d
       0.04793226 -0.039179176 0.05834072 0.065580964
000120 ad 8c 1a bd ce 8e bf 3d 0c 56 78 3a 7f e4 a4 bc
       -0.037731815 0.0935341 0.0009473271 -0.020128487
000130 0d 69 21 3d 89 f6 51 bd 63 94 dc 3c e4 ac 09 3c
       0.039406825 -0.051260505 0.026926225 0.008403037
000140 be 84 af bb e8 ee 47 bd 29 9c 14 bd 8d 5f 90 3c
       -0.0053564003 -0.048811823 -0.03628174 0.017623687
000150 7a 4a 00 bd dc 9a 81 3d 6c 4f a4 ba 49 a1 34 bc
       -0.031321026 0.06328365 -0.0012535877 -0.0110247815
000160 6e dc b9 bd a7 5a a0 3c 81 55 31 bd 27 fb eb bc
       -0.09075247 0.019574476 -0.043294434 -0.028806282
000170 0a ce 86 bc 7c e5 8a bd d8 0f bd bc 2a 16 04 3d
       -0.016455669 -0.06782052 -0.023078844 0.0322477
000180 13 2e e6 3b 55 8c 62 bd 3a 4a 39 3d ad 98 a4 bd
       0.0070245354 -0.055309612 0.045236804 -0.08036933
000190 a0 ef 06 3c 5c 7f ed bc a3 9a b4 bd 5a 0a 55 3c
       0.008235842 -0.028991394 -0.08818557 0.013002956
0001a0 ce 06 84 bd ed 78 c4 bc 48 c8 f8 bc 59 95 9f 3d
       -0.064466104 -0.023983443 -0.030368939 0.07792158
0001b0 f6 05 16 bd e5 df 30 3d de b4 16 3b 0d 36 73 3d
       -0.03662678 0.043182272 0.002299599 0.05937772
0001c0 53 33 92 bc 0a fc 84 3d 90 b1 5e bc de bb 6a bd
       -0.017846739 0.06493385 -0.013592139 -0.05730807
0001d0 8d b5 b1 3a e4 35 0c 3d 1b 8a ac 3c 6e ba 2a 3d
       0.0013558135 0.03423108 0.021061948 0.0416817
0001e0 99 6b bf bc b9 73 cd 3d 1f f4 57 bd 99 08 46 3d
       -0.023366736 0.10031838 -0.052723046 0.048348043
0001f0 c4 bd 62 bd 65 1a 1f 3c 34 e7 9e bd 3d 74 fd bb
       -0.055356756 0.009710883 -0.07758942 -0.007734804
000200 18 c7 16 bd df f9 56 bc 6c bc 21 b8 28 21 ed ba
       -0.036810964 -0.013121097 -3.8560873e-05 -0.0018091546
000210 a6 8e 80 bd 1c 15 3b bd c6 df 4d 3a b1 d2 b3 bd
       -0.06277208 -0.04567443 0.0007853474 -0.087804206
000220 0a 40 84 bd 3f 14 8a 3c f2 95 b2 bd b4 01 28 3d
       -0.06457527 0.016855357 -0.08720006 0.04101725
000230 98 eb 2f 3b 99 76 e3 bc 56 df 0e 3d e8 00 c3 3d
       0.0026843306 -0.027766513 0.03488096 0.09521657
000240 57 ad 69 bc 68 4d ea 3c 29 f1 af 3b 10 9c 0a 3b
       -0.014262519 0.028601363 0.0053693247 0.002115015
000250 7b ae 20 3c 80 f1 60 bd 17 df 1d bd 1d 00 57 bc
       0.009807224 -0.054917812 -0.038542833 -0.013122586
000260 24 bc 84 3d 14 20 00 3d fa d4 83 ba bf 72 34 3d
       0.064811975 0.031280592 -0.0010057979 0.044054743
000270 ea 3e 31 bd ff d5 67 3d 9a 3a cc bc 3e aa d0 bb
       -0.04327289 0.056600567 -0.024930287 -0.0063679507
000280 31 4f dd 3b 3a fa d0 bc cc 81 2d 3d e3 e4 8a bd
       0.006753825 -0.025509942 0.042360112 -0.06781938
000290 f7 b4 ec 3c 77 78 37 bd eb 9c bc 3d bd 38 7e 3d
       0.028894885 -0.04479262 0.09209617 0.06206583
0002a0 65 fd 4b 3d b1 20 87 3c cf 93 4c bd 7b 1d 04 3c
       0.049802203 0.01649508 -0.04994565 0.008063669
0002b0 7b 98 90 3c 64 43 34 3d d0 11 89 3d 70 9c eb 3d
       0.017650833 0.04400958 0.066928506 0.115044475
0002c0 0a c1 8e 3d 6e 2c 24 3d 1a 40 28 bc 21 49 c1 3d
       0.06970413 0.040081434 -0.010269189 0.09437776
0002d0 a9 0d b4 3c 2f 0b fa bb 69 80 40 bd ea 73 54 3d
       0.02197917 -0.0076307277 -0.04699746 0.051868357
0002e0 de 04 5f 3c 5f 77 8b 3c d9 de 1e 3d 02 71 88 bc
       0.013612 0.017024694 0.038786743 -0.016655449
0002f0 d5 58 79 bb a7 d0 c0 3c 42 3b 44 3d 2b ac 44 bd
       -0.0038047333 0.023536993 0.047908075 -0.048015755
000300 0e 67 79 bc fb 7e 22 3d 58 00 d6 bd 33 7b d8 bd
       -0.015222324 0.03967188 -0.10449284 -0.105703734
000310 18 f3 2a 3c 46 2e 30 3d f3 0e 02 3d 34 62 59 bd
       0.010433935 0.04301288 0.031752538 -0.05307217
000320 72 4b b0 3c e9 6e 8a bc 02 bc fe 3b f7 ad 6a 3c
       0.02152035 -0.01689859 0.007773877 0.014323703
000330 58 1a 1a bd f1 1e 00 3b a6 19 3e 3d 3e 9a 91 3d
       -0.03762278 0.0019549693 0.04641118 0.071094975
000340 2e 7f a6 bc a1 ef 94 bc 9e 91 3e bc ac 77 d8 3c
       -0.020324316 -0.01818067 -0.0116313975 0.026424251
000350 71 61 4d bc 55 6f a0 bd 0e 6f 87 bb c7 ba 5b bc
       -0.012535439 -0.07833735 -0.004133112 -0.01341123
000360 8b c3 5c 3d 24 aa ab 3d 6e b5 3b bd ee a3 3e 3d
       0.05389742 0.08382061 -0.04582732 0.046543054
000370 82 ee 57 bd 1e 11 1b bd 7e 1e 85 3c a5 d8 72 3c
       -0.052717693 -0.03785812 0.016249891 0.01482216
000380 d4 de 88 bd 4c 99 97 bd e6 df 1b bd b3 1e 88 3d
       -0.06683126 -0.07402286 -0.038055323 0.066464804
000390 54 d4 f6 3c ca ca bb bb cf 9b 0d 3c db e9 87 bd
       0.030130543 -0.0057309614 0.008643105 -0.06636401
0003a0 07 73 06 bd 3b 27 87 bd 18 e4 bf 3a 2b c0 74 bd
       -0.032824542 -0.065992795 0.0014640121 -0.05975358
0003b0 ae d9 e1 3b 13 04 fc 3c c9 8d 63 3d 30 a9 21 bd
       0.0068924045 0.030763661 0.05555514 -0.03946799
0003c0 e5 cb 35 bc a8 cc bb bc fe 1e 43 bc 49 e5 84 bd
       -0.0110959755 -0.022924736 -0.011909245 -0.06489045
0003d0 ea a3 c4 bc a8 60 fd 3b 29 46 46 3d 05 c2 9a 3d
       -0.024003942 0.0077324696 0.048406754 0.075565375
0003e0 07 05 e1 bc dc 88 be bb 01 e2 8d 3d 88 c7 c3 bc
       -0.027468218 -0.0058146548 0.069278724 -0.023898855
0003f0 47 a9 a1 3d 15 3f 95 3d 3b 99 07 bd ae c2 7a bd
       0.07893615 0.072874226 -0.033105116 -0.061220817

fc1.bias f4 [256]
000000 58 62 f0 3a 10 b6 07 bd 50 25 a8 3d 82 83 84 3c
       0.0018339856 -0.033132613 0.08210242 0.016175989
000010 57 bf 96 3d b5 f4 5c 3c 48 83 ee 3c e1 7f 5a 3d
       0.07360714 0.013486077 0.029115334 0.05334461
000020 0c 6e 76 bc dd e2 08 be 31 e0 90 bd a4 17 21 bd
       -0.015040886 -0.13367791 -0.07074011 -0.039329186
000030 37 96 51 bd 5b cd f0 bc 18 9d 82 3d 73 90 f8 bc
       -0.051168647 -0.029394796 0.063776195 -0.030342316
000040 68 54 e9 3d 47 24 df 3c 8c f4 97 bc 1a 77 3c bd
       0.11393052 0.027238978 -0.018549226 -0.04601202
000050 e2 1d 04 bd 2a 49 9a 3d 9c 18 ae bc 94 7a ef 3b
       -0.03225506 0.07533486 -0.021251969 0.0073083136
000060 e2 87 96 3d 16 4c a0 39 0e e3 79 bc 28 90 8d 3d
       0.07350136 0.00030574267 -0.015251888 0.06912261
000070 8f 1a e1 bd db 5b 45 bc 61 13 37 3c 8f f7 05 bd
       -0.10991394 -0.012045826 0.011174054 -0.032706793
000080 44 e3 6d 3d 25 e4 3b bd 4c cc ad bc cf 7b 1e 3b
       0.058078066 -0.045871872 -0.02121558 0.0024182682
000090 b5 62 2a bd be 28 35 bd d2 d6 22 3e d4 91 5f 3d
       -0.04159804 -0.044228308 0.1590226 0.054582432
0000a0 b0 51 ea bc cf 80 54 bd db 2e d7 bc 89 c6 e4 3c
       -0.028603405 -0.051880654 -0.02626746 0.0279267
0000b0 c7 4d e7 bc 02 dc 1f bc ca d1 5c bd ed b0 46 3d
       -0.02823533 -0.009757044 -0.053911008 0.048508573
0000c0 fe 09 05 bd c8 07 92 bd ba 7c 52 bd 60 c1 31 be
       -0.032480232 -0.071303904 -0.05138848 -0.17358923
0000d0 94 d4 06 bd b6 55 ac 3d 99 d9 06 be 2d bb 66 3c
       -0.032917574 0.084147856 -0.13168944 0.014082712
0000e0 6c 13 9d bd cf c4 c6 bc 1e 35 bf 3b 2c 1b 3c bd
       -0.0766972 -0.024263768 0.0058351895 -0.04592435
0000f0 78 df 5d 3d 93 d7 3e 3d fa c8 26 3d 09 ad 1f bd
       0.054168195 0.046592306 0.04071901 -0.03898338
000100 7e 4b f1 3a 2c 5b 99 3d ec 10 dc 3c ef 82 11 ba
       0.0018409339 0.07488093 0.026863538 -0.00055508217
000110 35 e8 84 3d 7c 60 83 3d c9 8b 21 bc ee 39 0a bc
       0.064896025 0.06414887 -0.009859988 -0.008436663
000120 69 fd b0 bc 57 ab 89 bd e0 0c a2 3c 24 42 87 bd
       -0.02160521 -0.067221336 0.01978153 -0.06604412
000130 37 16 ca 3c b1 16 77 bd 04 f1 dc 3a 88 6b db 3d
       0.024668796 -0.060324375 0.0016856496 0.10713869
000140 0c 64 30 bc 0c bd c0 bd 7b d8 9f 3c dd 2a 18 3c
       -0.0107660405 -0.09411058 0.019512406 0.009287563
000150 3e 92 7a bd 1d 97 e6 3b d4 03 b7 3d 6f 1b 8c 3d
       -0.061174624 0.007037057 0.08936277 0.0684117
000160 e0 70 97 bd 29 5c 8e 3d d4 eb 41 bc 0b 6d 2b 3c
       -0.07394576 0.06951172 -0.011836011 0.01046301
000170 e0 37 18 bd 39 80 9d bd fa 72 cf 3c a8 6f 14 3b
       -0.03716266 -0.07690472 0.02532338 0.002264956
000180 4e c5 a7 bd 1b af 0a 3c 01 23 ee bd 68 4c 77 3c
       -0.0819193 0.0084646 -0.1162777 0.0150939
000190 09 1a 5b 3d 03 a8 dd 3c 13 36 5a 3d 0f ec 1c 3d
       0.053491626 0.027057653 0.053274225 0.03831106
0001a0 1b 29 19 3d 71 d7 1f 3d 6d 90 08 3c 37 dd b4 bd
       0.037392717 0.03902382 0.008335215 -0.08831256
0001b0 12 93 de 3b 1d b9 58 3c 20 34 4d 3d ff 36 74 3c
       0.0067924345 0.013227728 0.05009854 0.01490569
0001c0 7a de 46 3d 35 ed 97 bd a3 b5 35 bd 41 9c 21 3d
       0.048552014 -0.074182905 -0.044362675 0.039455656
0001d0 63 23 3c bd 3e e0 43 3d d8 c3 a2 3d cf 28 2a 3c
       -0.045932185 0.047821276 0.079475105 0.010385706
0001e0 8f 70 83 bd 0c 1e 0b bd 3b 4f 84 3d 16 b4 ce 39
       -0.06417953 -0.0339642 0.064604245 0.00039425556
0001f0 5d 1d dd bc 99 b2 68 3c d7 4c b0 bc 3b 30 bf bc
       -0.02699154 0.014202737 -0.021521015 -0.023338428
000200 95 ce a2 bb 98 55 7e 3c 7d 11 8d 3d 1d 01 8d 3d
       -0.004968474 0.015523337 0.06888101 0.06884978
000210 ed 24 9a 3b 68 6a 20 3e 03 17 26 3d 2f 36 a1 bd
       0.004704109 0.15665591 0.04054929 -0.07871663
000220 4f b9 3e bc 68 1e b8 ba 4e 6a 71 ba 84 13 89 3d
       -0.011640861 -0.0014047148 -0.0009209261 0.066931754
000230 a3 d0 a7 3d 46 ab 06 3d 48 0f 36 bd fd 86 4d bc
       0.08194091 0.032878183 -0.044448167 -0.012544391
000240 f7 78 94 bd 28 eb 5f 3d a6 bb 84 3c 86 13 53 bd
       -0.07249635 0.05466762 0.016202759 -0.05153229
000250 fa b1 57 bd 9f 95 91 3b 09 7b 49 bd 15 75 8f 3d
       -0.052659966 0.004442885 -0.0491896 0.070047535
000260 e9 8c 48 bd 07 35 70 bc ca db 3b bd ba 6b 6a 3c
       -0.048962507 -0.01466108 -0.045863904 0.014307911
000270 57 bf 20 bd 7c 07 b5 3d d4 12 b8 3c e2 32 3e bd
       -0.039244976 0.08839318 0.022469915 -0.046435244
000280 bd fc 0e bd 0d 06 30 bd 04 ff 29 3d 27 1a a8 3c
       -0.034909 -0.04297452 0.041502967 0.020520283
000290 86 a9 6e bc ee 25 a1 bd 88 8d be bb c6 6f 4e bd
       -0.014566785 -0.07868563 -0.0058152117 -0.050399564
0002a0 28 9a f3 bc d9 cb 5e bc 26 47 94 3d f5 7f 99 bd
       -0.029736593 -0.013598406 0.07240133 -0.07495109
0002b0 a9 c3 ee bd d4 fd fc bc 7e 63 b2 bc c1 73 4c 3d
       -0.11658413 -0.030882753 -0.021775957 0.04991508
0002c0 79 61 80 3c a2 4b d9 ba e8 ac cb 3d e6 5d cf 3c
       0.015671479 -0.0016578326 0.099450886 0.025313329
0002d0 21 c9 a5 bd ee 93 9a bd c5 38 a2 3c 64 3c 4d bd
       -0.08095003 -0.075477466 0.01980246 -0.05010642
0002e0 9b 7f 62 bd 85 50 a8 bd 43 76 b5 3d bb 3c 2b 3d
       -0.055297475 -0.08218483 0.08860447 0.041805964
0002f0 1b 6f 5c 3d ac 97 51 3d 95 bb 8c bc 19 a9 3e bc
       0.053816896 0.051170036 -0.01717929 -0.011636996
000300 90 fc 5e bd d2 c8 64 3d 6c dc 75 bd d6 c9 8f bd
       -0.05444008 0.05585558 -0.060024664 -0.07020919
000310 b8 1c 73 3c 39 ca 8b bd 63 19 e2 3b b7 8d ed 3c
       0.01483839 -0.0682568 0.006899999 0.028998239
000320 9e ae 8a ba 27 08 86 bd dc c6 e4 bc 37 5e b3 bc
       -0.0010580604 -0.06544524 -0.027926855 -0.021895511
000330 05 62 67 bd f6 91 bf bc 2f 17 b3 3d e8 99 c7 bb
       -0.056489963 -0.02338503 0.08744656 -0.006091345
000340 1a 23 95 3c 68 4e 61 3d 99 79 27 3d 60 f9 aa bd
       0.018205214 0.055006415 0.04088745 -0.08348346
000350 96 69 ea 3c 34 ec b7 bd b2 20 d7 bc f0 5c 3a 3d
       0.0286148 -0.08980599 -0.026260708 0.04549879
000360 c9 69 42 3d b3 22 ec bb 46 e0 19 3d 21 dc b2 bd
       0.047464166 -0.007206285 0.0375674 -0.087333925
000370 c0 67 03 3b e4 99 c3 bd 91 07 ba bc f9 5b 62 3d
       0.0020050853 -0.09550837 -0.022708686 0.055263493
000380 47 5b c9 3d 86 61 e5 bd 6e cf 2f bd 18 15 97 3d
       0.09831863 -0.11200242 -0.04292243 0.0737707
000390 d8 72 33 bc 15 8b c2 bd 37 83 34 3d ef fe e7 bc
       -0.010952674 -0.09499184 0.04407045 -0.028319804
0003a0 5c 5d a3 3d a7 8f 0b 3c 22 b2 42 bd ee 35 39 3d
       0.07976791 0.008518136 -0.047533162 0.045217447
0003b0 40 d1 1e ba fc b0 e7 3c bf 2e 91 bd 39 6b a3 3c
       -0.00060584024 0.028282635 -0.07088994 0.019948589
0003c0 26 80 e3 bc 4b 07 ae bd 30 64 7b 3d b5 3c 4f 3c
       -0.027771067 -0.08497485 0.061374843 0.012648751
0003d0 6b d1 55 3c fc 9e f3 3d 4d 34 c1 bd 78 92 c3 bc
       0.013050417 0.11895558 -0.09433804 -0.023873553
0003e0 2f d0 18 bd 61 a0 27 bc 6d c5 47 bc b5 4f 25 bd
       -0.037307914 -0.010231108 -0.012193066 -0.040359218
0003f0 89 89 09 3d a3 2d cb 3d 42 c8 ae bb e7 40 8b bd
       0.03357843 0.09920814 -0.005333931 -0.067994885

batch_norm1.weight f4 [256]
000000 00 66 7e 3f 35 77 84 3f c9 21 83 3f 0c 10 86 3f
       0.9937439 1.0348879 1.0244685 1.0473647
000010 06 d3 7c 3f 0f c9 7f 3f 1a 62 89 3f 90 95 7b 3f
       0.98759496 0.99916166 1.0733063 0.9827509
000020 1c 31 83 3f 06 21 84 3f 0f 98 87 3f fb a4 82 3f
       1.0249362 1.0322578 1.059328 1.0206598
000030 2e 31 76 3f c0 89 86 3f 14 2c 86 3f e0 e4 83 3f
       0.9616879 1.0510788 1.0482202 1.0304222
000040 2f 9f 83 3f 99 24 84 3f 6f 49 7f 3f dd d6 82 3f
       1.0282954 1.0323669 0.99721426 1.0221821
000050 aa 39 82 3f 85 d1 87 3f 8f f8 89 3f 68 06 81 3f
       1.0173848 1.0610815 1.0778979 1.008008
000060 35 45 88 3f 75 53 84 3f 8f 09 83 3f 34 b4 7b 3f
       1.064612 1.0337969 1.0237292 0.98321843
000070 62 4a 83 3f 52 00 84 3f 3d 0e 83 3f 1b f1 85 3f
       1.0257075 1.0312598 1.023872 1.0464205
000080 d1 d1 83 3f f3 fd 82 3f 7f fc 7e 3f 88 fe 81 3f
       1.0298406 1.0233749 0.9960403 1.0155802
000090 31 d9 7c 3f 0a ad 84 3f 3d c9 7b 3f b9 5b 83 3f
       0.9876891 1.0365307 0.9835394 1.0262367
0000a0 79 09 86 3f 7c 2f 82 3f 29 b0 85 3f d2 0a 83 3f
       1.0471641 1.0170741 1.0444385 1.0237677
0000b0 c0 cb 82 3f 5e 09 81 3f 51 76 87 3f 23 ab 80 3f
       1.021843 1.0080984 1.0582982 1.0052227
0000c0 94 bd 7f 3f 35 b6 80 3f d9 47 86 3f e0 7e 82 3f
       0.9989865 1.0055605 1.0490676 1.0194969
0000d0 3e 17 89 3f 40 bb 86 3f 9f 46 88 3f c2 f6 83 3f
       1.0710218 1.0525894 1.0646552 1.030968
0000e0 6f 9e 84 3f 2b bb 88 3f e2 2b 80 3f aa 92 89 3f
       1.036085 1.0682119 1.0013392 1.0747883
0000f0 e6 d6 82 3f 28 0d 7f 3f 54 c4 80 3f 06 6c 84 3f
       1.0221832 0.9962945 1.0059915 1.0345466
000100 df fe 82 3f 24 6d 84 3f ad 38 82 3f 1d 2c 7e 3f
       1.023403 1.0345807 1.0173546 0.9928606
000110 05 27 8e 3f 71 a6 83 3f a5 e9 85 3f de da 7d 3f
       1.1105658 1.0285169 1.0461928 0.9916209
000120 42 6f 84 3f 96 a4 84 3f be db 83 3f 16 b4 83 3f
       1.0346453 1.0362728 1.0301435 1.0289333
000130 63 ac 82 3f 4b be 83 3f 49 21 81 3f ac de 81 3f
       1.0208858 1.0292448 1.0088283 1.0146079
000140 11 dd 86 3f 5e f7 7d 3f 2e 0a 88 3f 96 cc 85 3f
       1.0536214 0.9920558 1.0628107 1.045306
000150 b8 ea 80 3f 25 38 85 3f 36 4e 87 3f 59 46 86 3f
       1.007163 1.0407759 1.0570743 1.0490218
000160 6d 0b 81 3f 6c 0e 84 3f 61 b6 83 3f d2 2c 85 3f
       1.0081612 1.0316901 1.0290033 1.0404303
000170 b4 70 83 3f d4 22 8a 3f 6f 9b 80 3f df 81 86 3f
       1.0268769 1.0791879 1.0047435 1.0508384
000180 80 0a 80 3f 04 9f 83 3f 6e 79 7b 3f f0 73 84 3f
       1.0003204 1.0282903 0.9823216 1.0347881
000190 1b 8d 80 3f 8f e8 83 3f 35 c0 84 3f 8e e7 85 3f
       1.0043062 1.0305346 1.0371157 1.046129
0001a0 ed e2 84 3f e5 31 84 3f e8 bc 7b 3f 89 e0 83 3f
       1.0381752 1.0327727 0.98335123 1.0302898
0001b0 47 18 87 3f e4 5d 7f 3f 2a a5 80 3f 79 5f 84 3f
       1.0554284 0.9975264 1.0050404 1.0341636
0001c0 4b 79 86 3f d1 fa 85 3f 13 01 84 3f 1a 48 77 3f
       1.0505766 1.0467168 1.0312828 0.96594393
0001d0 99 94 82 3f 59 1a 7e 3f 58 32 84 3f 32 e5 80 3f
       1.0201598 0.99258953 1.0327864 1.0069945
0001e0 dd 60 8b 3f 04 1c 86 3f fa 88 85 3f 59 85 86 3f
       1.0888935 1.04773 1.0432427 1.0509444
0001f0 6e da 83 3f e2 20 88 3f 6b 7b 80 3f a3 4e 81 3f
       1.0301034 1.0635035 1.0037664 1.0102123
000200 0f 87 7e 3f 44 af 84 3f 88 e4 7e 3f e7 97 89 3f
       0.99424833 1.0365987 0.9956746 1.0749482
000210 fb 2a 84 3f dd 57 8a 3f 83 33 86 3f 39 43 86 3f
       1.0325617 1.0808064 1.048447 1.0489265
000220 7b 17 87 3f ed 7a 88 3f 6e 88 83 3f 74 11 87 3f
       1.0554041 1.0662514 1.027601 1.0552201
000230 6c 79 84 3f 3e ff 82 3f a2 e2 73 3f 35 0f 82 3f
       1.0349555 1.0234144 0.9526769 1.0160891
000240 f4 43 7c 3f a4 c9 85 3f b5 66 81 3f ac 3c 85 3f
       0.9854119 1.0452161 1.0109469 1.040914
000250 a7 bb 82 3f 93 52 81 3f f2 08 8b 3f 22 42 81 3f
       1.0213517 1.0103325 1.0862105 1.0098307
000260 8b b4 84 3f 7c 0f 89 3f 71 eb 87 3f 5d 4c 79 3f
       1.0367597 1.070785 1.0618726 0.97382146
000270 ab 22 79 3f c6 75 88 3f 3b 73 82 3f 02 4b 7e 3f
       0.97318524 1.0660942 1.0191416 0.993332
000280 29 71 84 3f dc 20 81 3f 6e 4d 85 3f 26 c3 82 3f
       1.0347034 1.0088153 1.0414255 1.0215805
000290 fd 7d 83 3f d7 d1 86 3f 23 15 83 3f a2 3e 87 3f
       1.0272824 1.0532788 1.0240825 1.0565989
0002a0 b5 52 83 3f 7b c6 83 3f 4e b9 84 3f cb 26 87 3f
       1.0259615 1.0294946 1.036905 1.0558714
0002b0 5d 8c 82 3f f1 3f 7f 3f 80 95 80 3f eb 9d 89 3f
       1.0199085 0.9970694 1.0045624 1.0751318
0002c0 84 2c 83 3f 24 2a 85 3f 43 e4 80 3f 82 c6 7d 3f
       1.024796 1.0403485 1.006966 0.99131024
0002d0 4e a2 85 3f 47 81 81 3f 6f e0 81 3f 02 19 7e 3f
       1.0440156 1.0117577 1.0146617 0.9925691
0002e0 48 f6 82 3f 91 f7 86 3f ad be 83 3f a0 0d 84 3f
       1.0231409 1.0544301 1.0292565 1.0316658
0002f0 16 4f 81 3f 28 ad 88 3f 39 5d 85 3f 68 4f 89 3f
       1.010226 1.0677843 1.0419074 1.0727358
000300 f3 e1 81 3f 5d 44 83 3f c5 63 84 3f 57 26 85 3f
       1.0147079 1.0255238 1.0342947 1.0402325
000310 a6 f7 82 3f 7d e7 89 3f e1 98 82 3f 27 f9 83 3f
       1.0231826 1.077377 1.0202905 1.031041
000320 52 3f 7f 3f 40 a0 88 3f 06 d6 85 3f 31 88 81 3f
       0.99705994 1.0673904 1.045594 1.0119687
000330 c3 d3 82 3f e7 c6 7f 3f 31 ee 88 3f 6f 7f 87 3f
       1.0220875 0.99912876 1.069769 1.0585765
000340 08 20 81 3f 10 24 83 3f 45 96 7e 3f d3 da 75 3f
       1.00879 1.024538 0.99448043 0.96037024
000350 3e 46 83 3f 23 41 84 3f ce 24 86 3f 26 ae 83 3f
       1.0255811 1.0332378 1.0479982 1.0287521
000360 c1 c6 82 3f 86 a1 82 3f 15 3c 83 3f 3c 71 7b 3f
       1.0216905 1.0205543 1.025271 0.98219657
000370 38 67 88 3f 36 92 85 3f e4 74 85 3f a2 54 86 3f
       1.06565 1.0435245 1.0426297 1.0494578
000380 fd 3a 80 3f 4b 0a 7d 3f 1e d0 84 3f 04 e1 84 3f
       1.0018002 0.9884383 1.0376012 1.0381169
000390 0c 92 82 3f 9c 80 7a 3f 4c 5f 82 3f 6c be 81 3f
       1.020082 0.9785249 1.0185332 1.0136237
0003a0 6c 7f 7f 3f 1a 6a 82 3f 38 ec 84 3f 14 c8 81 3f
       0.99803805 1.018863 1.0384588 1.0139184
0003b0 6a 86 80 3f 08 cf 82 3f 71 c0 84 3f 1d 4b 7c 3f
       1.004102 1.0219431 1.0371228 0.98552114
0003c0 35 94 85 3f 6f 89 7e 3f 13 dc 88 3f 7c a0 81 3f
       1.0435854 0.9942846 1.0692161 1.0127101
0003d0 f4 96 87 3f 55 ef 85 3f 9a 2e 89 3f 8f a1 81 3f
       1.0592942 1.0463663 1.0717347 1.0127429
0003e0 ea 36 87 3f 34 b5 84 3f b6 73 83 3f b4 ce 7d 3f
       1.0563633 1.0367799 1.0269687 0.9914353
0003f0 83 f6 86 3f 6f 6a 87 3f 8e 15 84 3f c1 36 7a 3f
       1.054398 1.0579356 1.0319078 0.977398

batch_norm1.bias f4 [256]
000000 c4 4e 4e bd 6b 0c 0a 3d 6c 9a 99 3d d0 e7 bd bc
       -0.050368086 0.03370325 0.07500157 -0.023181826
000010 ed 60 11 3d 30 39 bf 39 f6 3a 87 3c 7f 3f bc 3c
       0.035492826 0.00036472967 0.016507607 0.022979496
000020 2b ac 85 3d 17 f5 bf bd e8 36 ae bc df f9 d0 bb
       0.06526979 -0.09372919 -0.021266416 -0.006377443
000030 1a 06 7d bc 2a c3 f9 3c d4 bf a2 3b 44 0e 58 bd
       -0.015443349 0.03048857 0.0049667154 -0.05274798
000040 46 07 2d 3d 57 c7 d1 3c bf cf 14 3d ac 7c 1c 3d
       0.042243265 0.025607748 0.036330935 0.038204834
000050 94 43 85 bd 86 5e 06 bd 49 95 ca bc 2b 59 e6 3d
       -0.0650703 -0.03280499 -0.024729388 0.11247476
000060 1f 07 c9 3d b3 8b 9b bd cf 90 a4 3d 19 d8 d6 bc
       0.09815811 -0.07595005 0.080354325 -0.02622609
000070 23 bf 06 3d 53 34 31 3d e9 6a 85 3d 12 0b 32 3a
       0.032897126 0.04326279 0.06514532 0.0006791811
000080 a9 b2 ed bc 4e 09 3d b9 a5 c1 46 3c 3e b9 c6 bb
       -0.029015856 -0.00018027911 0.012131129 -0.006064563
000090 e0 51 a9 bd e1 af ed bc 2a a7 aa bd 21 25 84 bc
       -0.082675695 -0.02901453 -0.08332665 -0.016130986
0000a0 ef 18 9d bc 9b 89 1b 3d 32 38 b4 3c 2d e6 95 3d
       -0.019176928 0.037973028 0.021999452 0.07319293
0000b0 38 b6 59 bb 48 d8 16 bb 12 86 42 bd 97 a7 50 bd
       -0.0033220183 -0.0023017097 -0.04749114 -0.050941076
0000c0 d0 0c f2 38 dd d6 9c bc 04 f3 8a bc 13 69 61 bd
       0.00011541846 -0.019145424 -0.016961582 -0.055031847
0000d0 b9 03 17 bd 97 46 b2 3d 9a c7 69 ba c9 0d 4a 3b
       -0.036868785 0.0870487 -0.00089179876 0.003083097
0000e0 e1 5b 9d 3c f0 19 d1 bb 9d 27 c7 bb cb 4a 44 3d
       0.01920885 -0.006381266 -0.0060777203 0.04792289
0000f0 b3 f8 a6 3c fd be f9 bb c7 07 6f 3d fa f5 67 bc
       0.02038226 -0.0076216445 0.058357026 -0.0141577665
000100 7a 34 21 3c 51 ac 0e bd 93 cf 90 3d 9b ab 8a bc
       0.009839172 -0.034832302 0.07070842 -0.016927531
000110 7e 52 80 3b 62 e8 ea bd 74 89 5e 3d fd ec 07 bd
       0.003916084 -0.11470105 0.054330304 -0.033184994
000120 d4 12 f1 bd c5 d1 3b bb b5 3c 0f bd 55 21 9a 3d
       -0.11771169 -0.0028658968 -0.034970004 0.07525889
000130 6b 6f 78 bd 29 dd b3 bc 4c 24 85 bd a9 1a 78 3d
       -0.06065313 -0.021956043 -0.06501064 0.0605723
000140 24 31 31 bd 00 50 29 3d 8d 36 6b 3d 4c e4 83 bd
       -0.043259755 0.04133606 0.05742507 -0.064400285
000150 76 7e ca bc e1 9d 68 bd 4c 17 8c bc 62 99 a0 3c
       -0.024718504 -0.05679119 -0.017100953 0.019604389
000160 91 4f c3 3c 63 60 6d 3c 15 9b 98 bc 91 4e 10 3d
       0.023841651 0.014488312 -0.018628636 0.035231177
000170 ee 18 16 bc 24 dc 13 bd 9a 32 ce 3d 5d 14 a4 bd
       -0.009161217 -0.036098614 0.10068245 -0.080116965
000180 1b 65 54 3d be 41 67 3c 74 8b 8b bd 54 e9 63 bd
       0.051854234 0.014114795 -0.06813708 -0.05564244
000190 5c 3b 94 3c 80 e2 8f 3d a7 54 6d 3d 3c c8 4c 3d
       0.018094711 0.07025623 0.05794206 0.049995646
0001a0 53 7f cf bd 6a 9c 9a 3d 05 30 92 bd 12 b6 fa 3c
       -0.10131707 0.07549365 -0.07138065 0.030604396
0001b0 00 01 9c 3c d4 a3 60 bd 06 5e 22 3d 8f f3 db bc
       0.019043446 -0.05484374 0.03964045 -0.026849536
0001c0 16 97 84 bd 06 4c ac bc 9d cb db bb 81 28 9c 3a
       -0.0647413 -0.021032345 -0.006707622 0.0011913927
0001d0 2f b9 2b 3d 88 b5 99 3c 6f fa a9 bc 22 35 24 3d
       0.04192465 0.018763319 -0.020749299 0.040089734
0001e0 51 eb 1f 3d eb 71 c5 3c 58 9d 18 bc f0 22 ba 3c
       0.039042775 0.024102172 -0.009314857 0.022721738
0001f0 59 93 10 bd 3f 78 87 bd 4d 57 32 bd c5 83 0f 3e
       -0.03529677 -0.06614732 -0.043540288 0.1401511
000200 74 f6 3c bc 1f f9 c1 3c bf 82 cc 3b 1b 86 df bc
       -0.011533368 0.02367836 0.006241172 -0.027285626
000210 0c 3a 93 bb fb 3e c1 3b 7b 50 17 bd c3 b1 21 bd
       -0.0044930037 0.0058974004 -0.036941987 -0.039476167
000220 a5 6f 55 bd e2 9f 55 bd 20 94 37 3c 2f fb 1b 3d
       -0.052108426 -0.05215443 0.011204749 0.038081344
000230 2b 4f 5a 3c e8 74 2e 3d 4a 81 c4 3d 1e d6 89 3d
       0.013324539 0.04259196 0.095949724 0.06730293
000240 43 fe ee 3b 9c 31 fe bc d3 d5 77 3c 84 e9 a1 bc
       0.007293494 -0.031029515 0.015126663 -0.01976467
000250 cd 8d 17 bc ec 03 4f bd bc b2 4b bd 5d f3 8b 3b
       -0.009250117 -0.05054085 -0.049731 0.0042709545
000260 d3 c8 50 3d 07 ff 54 bc a0 6c 58 b7 cd 4e e4 bc
       0.05097277 -0.013000256 -1.28998945e-05 -0.027869606
000270 a8 c7 50 bd 00 cc 46 bb b2 91 2d bd 16 ab 5c 3a
       -0.050971657 -0.0030333996 -0.042375274 0.0008417828
000280 50 3e 28 3d db 24 82 ba 6a 0e 3f 3d 91 91 66 bc
       0.04107505 -0.0009929197 0.046644606 -0.014072792
000290 62 c4 cd bd 35 55 47 bc 5d 1a e8 3c 82 3c ad 3b
       -0.10047223 -0.012166311 0.028332883 0.005286754
0002a0 ee ab b9 bd 3c 0d 2d bc e5 f2 16 3c d5 20 d4 bc
       -0.09065996 -0.010562237 0.009213184 -0.025894562
0002b0 df 4d 30 bd d6 11 82 bd 95 90 8c 3a 8e cf 4f ba
       -0.043043014 -0.06351058 0.0010724241 -0.00079273514
0002c0 ba dc 33 bd fe 67 a2 3b 06 5a 09 3d 89 3a 58 bb
       -0.043911673 0.0049562445 0.03353312 -0.0032993874
0002d0 a9 1c c8 3c a4 3c 46 bc da 66 5e 3d 76 b3 3e 3d
       0.024427729 -0.012099419 0.054297306 0.046557866
0002e0 58 c4 de 3c b7 37 f8 3c c4 f0 5c 3d 4a ab 96 3c
       0.027193233 0.030300004 0.05394055 0.018392224
0002f0 70 96 4d bd 20 e9 2e b8 f8 13 81 3c ac 5f bb bc
       -0.050192297 -4.1701947e-05 0.015756592 -0.022872768
000300 bd c8 a2 bc 87 d9 72 3b 48 3f fb bc 83 97 f9 bc
       -0.01987111 0.0037055926 -0.030669823 -0.030467754
000310 dc 01 a7 3a 7b da db bc ba b7 21 bd 0b c9 49 3c
       0.0012741643 -0.026837578 -0.039481856 0.012315999
000320 13 05 61 bd eb 46 b6 3c c0 48 bb bc 49 b2 71 bc
       -0.05493648 0.022250613 -0.022861838 -0.014751979
000330 06 d8 85 bd d4 86 ee ba fd 3b 0d 3d cb fd c6 3b
       -0.06535344 -0.0018198141 0.034481037 0.006072735
000340 a1 b1 7e 3d e2 48 f4 3c d5 25 4d bd 74 bf 6e bd
       0.06218112 0.02981991 -0.050084908 -0.058288053
000350 82 e1 39 bd 68 89 12 bd d3 14 b9 bc 60 e5 03 bd
       -0.045381077 -0.035775572 -0.022592938 -0.03220117
000360 50 34 2e 3b 35 1b a4 bc 1f 1e 62 bb ac 38 85 3d
       0.0026581474 -0.020032505 -0.0034502817 0.0650495
000370 45 c7 50 3c d6 dd b8 bd 96 48 4c 3d aa 9a a8 3a
       0.012742822 -0.09026687 0.04987391 0.0012863476
000380 d8 6c aa 3d 9f 9d bc bd 36 03 8c bd fb 3e 02 3d
       0.083215415 -0.09209751 -0.0683655 0.031798344
000390 59 36 c6 bd 9d 0a 65 3d 9f ab a2 3b ce 83 9d bc
       -0.09678335 0.055918325 0.0049643065 -0.019227888
0003a0 7c 85 6b 3d 76 37 92 3d 87 a2 81 3c 06 4d 57 3c
       0.057500347 0.071394846 0.01582457 0.013140922
0003b0 51 97 90 3d 0e b0 29 bd 15 ff 4f 3d 63 ce d8 ba
       0.07060111 -0.041427664 0.050780375 -0.0016541
0003c0 6e b4 90 3d b0 6c a9 bd 3c 7f 0b 3c c4 24 45 bc
       0.07065664 -0.082726836 0.008514222 -0.012032691
0003d0 ea 83 a9 bd 43 d1 3e bd 0d 35 c8 3c 4f 80 36 3d
       -0.08277114 -0.046586286 0.02443936 0.04455596
0003e0 9b a1 b4 bc 48 37 d9 bb 7b 1e 27 3c e7 bd 2f 3c
       -0.022049716 -0.0066289045 0.010200138 0.010726429
0003f0 87 ab 6c bc 26 71 7f bc f1 e9 a9 3c a4 7a 6e bc
       -0.014445192 -0.0155909415 0.020741435 -0.014555607

batch_norm1.running_mean f4 [256]
000000 22 0a 05 3e 51 1f cb be 2a bd 01 3f a8 7b 60 be
       0.12992147 -0.3967233 0.50679266 -0.21922171
000010 b7 39 0b bd 10 b8 e0 be 40 62 b3 be ae 9c 03 bf
       -0.033990588 -0.4389043 -0.35035896 -0.5141095
000020 e4 ef bf 3e bf 99 b2 bd 80 d9 78 bd a8 a2 45 be
       0.3748771 -0.08720731 -0.0607543 -0.1930033
000030 48 58 0c bf cd 12 1d 3f 3b 37 58 be 7d 22 42 3e
       -0.54822206 0.6135681 -0.21114819 0.18958469
000040 66 e5 17 3e da 07 82 3f bc 7f 88 3d 3c dc 13 be
       0.14833602 1.0158646 0.066649884 -0.14439481
000050 a9 b4 64 be 3a c3 36 be ca 57 fc 3e 7a 6b c2 3d
       -0.22334541 -0.1784791 0.49285728 0.09493156
000060 a4 67 81 3e e9 63 6a be 16 51 37 be a0 bc bc bc
       0.25274384 -0.22889675 -0.17902026 -0.023039162
000070 07 af ef bd d0 75 be 3e 8c 5e 48 3f 03 3b a6 bd
       -0.11703306 0.3719926 0.7826927 -0.08116724
000080 98 ef b5 3e c6 dd ac be a3 0a 04 3f 6b b0 1b 3f
       0.35534358 -0.3376295 0.5157873 0.6081607
000090 88 f6 b4 be 5b 9d a9 be b9 15 c4 bd c6 2f 00 3e
       -0.35344338 -0.33127865 -0.09574456 0.12518224
0000a0 af 85 55 be 73 99 a6 3e a3 9e a8 be cd c9 7f 3c
       -0.20851777 0.32538947 -0.3293353 0.015612078
0000b0 cd d0 9b 3e 68 e4 ef bd 2b 03 c0 3d 1e a4 f0 be
       0.3043274 -0.11713487 0.09375604 -0.4700021
0000c0 83 fb 88 be ef 18 61 3e fa 9b 14 bb a8 c3 06 be
       -0.26754388 0.21982168 -0.0022675977 -0.13160574
0000d0 4e 73 28 3e cb a8 f1 3e f0 d6 9f 3d f5 4d c3 be
       0.16450235 0.4719909 0.07804668 -0.38145414
0000e0 3d e8 b0 be c2 d4 43 bd 4c 28 13 be 34 e5 2f 3e
       -0.34552184 -0.047810324 -0.14370841 0.17177278
0000f0 32 4c 91 3d d5 9e 11 3d 22 ca 88 3e 77 b6 cf 3e
       0.07094611 0.035551865 0.26716715 0.40568897
000100 7f 15 66 3e f3 35 8a 3e c7 e8 9f be ed 4c 09 3e
       0.22469138 0.26994285 -0.31232283 0.13408251
000110 b5 7a 09 3e de 19 23 3f 38 dd e8 3d d6 6c 4d 3f
       0.13425715 0.63711345 0.11370319 0.80244195
000120 4e 06 00 3e b4 aa 66 be 50 ff 6f be cd 76 45 3d
       0.12502405 -0.22526056 -0.23437238 0.048209
000130 c4 b5 35 3f c8 3c 8a be 89 a9 e9 be 4f 26 33 3e
       0.7098048 -0.26999497 -0.45637158 0.17495082
000140 4c 48 bf bd e2 2f 14 bf 4d f0 1e 3d 72 c6 e9 3d
       -0.093399614 -0.57885563 0.038803387 0.114148036
000150 62 3a 96 3d 6e a1 2c 3d 47 91 2b 3c f3 c5 44 3d
       0.073353544 0.04214614 0.010471649 0.04804034
000160 aa 14 ce be de 1a b8 3e 99 35 a7 be 57 b3 a1 3d
       -0.4025014 0.35957998 -0.3265808 0.078955345
000170 9d d3 84 3e 86 d3 d8 3e 0c 31 b5 3e 00 0e cc be
       0.25942698 0.4234888 0.35388982 -0.3985443
000180 79 f8 c5 be 7d b4 10 bf 97 ad c9 be 6b 83 cf bd
       -0.38666132 -0.56525403 -0.3939025 -0.10132488
000190 9d 80 eb bd c0 1f 99 3e fb c4 73 3e ea fb 2e be
       -0.114991404 0.29907036 0.23805611 -0.17088285
0001a0 f1 57 8a be 61 5a 36 bd 0a 0b 61 3d 84 7b 94 be
       -0.2702022 -0.044519786 0.05494217 -0.29000485
0001b0 c7 30 10 3e d2 69 04 be 66 cf 01 be 60 b3 8e 3d
       0.14081107 -0.12930992 -0.12676772 0.06967807
0001c0 6e 7f 7a be 47 7f eb 3e 89 05 94 3e 43 4e ae be
       -0.24462673 0.45995542 0.28910473 -0.34044084
0001d0 4c 16 39 be 68 57 07 3f f0 f5 0f 3d 5a 06 3f 3e
       -0.18074912 0.52867746 0.035146654 0.18654767
0001e0 d6 fb b1 bd 42 02 ad be f2 6b 8d 3e e6 03 8d be
       -0.08690612 -0.33790785 0.27621418 -0.27542037
0001f0 c2 2c 38 be 8b 3e 1d be 42 02 eb be 4d 99 aa be
       -0.17985824 -0.1535589 -0.4590016 -0.33320084
000200 c2 06 b4 bc 97 73 39 3d be b6 8b be f9 7b 33 3e
       -0.021975879 0.04527625 -0.2728786 0.1752776
000210 6f 25 cf be 51 4a 65 3e 64 41 cc 3e 5d 2d 1c 3e
       -0.40458247 0.2239163 0.3989364 0.1525168
000220 31 22 22 3d ca 46 05 be 0c 0d 8a 3d cb 03 4e 3f
       0.03958339 -0.13015285 0.0674077 0.8047454
000230 bb a3 bc bd fe 64 02 3f 4e 69 ba 3e ab 5a 82 3f
       -0.092109166 0.5093535 0.36408466 1.018392
000240 2a aa 35 3f 94 f8 94 3e 67 eb e8 3d e5 5e 11 bd
       0.70962775 0.290959 0.113730244 -0.03549089
000250 9f 36 70 3e 7c 68 ee 3e 8c 59 dd be e0 26 1f 3f
       0.23458336 0.4656409 -0.4323238 0.62168694
000260 18 f9 80 3d a2 30 ec be ff 46 9a 3e d6 b3 aa 3d
       0.06297511 -0.46130854 0.3013229 0.08335082
000270 06 55 83 3d b6 e0 e7 bc e7 3d e8 3e 4f 50 31 be
       0.06412701 -0.028305393 0.45359728 -0.17315792
000280 45 6d 25 be 46 d6 1c be 31 b2 1e 3e 9d 21 d3 bc
       -0.16154964 -0.15316114 0.15497662 -0.025772864
000290 ce a1 17 3e 98 61 dc bd 66 06 44 3c 2e 63 96 be
       0.14807817 -0.10760802 0.011964416 -0.29372543
0002a0 88 f5 71 be 27 ff 7c be ec d8 f7 3c 56 53 b4 3d
       -0.23628819 -0.24706708 0.030254804 0.088049576
0002b0 68 f6 d9 3d 78 30 8c 3d 69 e3 73 3e 3d 9d d3 bd
       0.106427014 0.06845182 0.23817219 -0.10332725
0002c0 3a ea fa be b9 ee 56 3e 59 e5 8d bb 42 68 a6 3d
       -0.49006826 0.20989503 -0.004330319 0.08125354
0002d0 bc 82 d9 be 67 18 b3 be 68 67 31 bc 51 de 3d be
       -0.42482555 -0.34979555 -0.010827877 -0.18541838
0002e0 35 d2 d1 3e cd fe 4b bd 2f b8 da 3e 2e 4f 8d bd
       0.40980688 -0.049803544 0.42718646 -0.06899868
0002f0 f8 a3 53 be 47 59 01 3f 68 d0 91 be 01 fb c2 bd
       -0.20668018 0.5052685 -0.28479314 -0.095205314
000300 ae 0e 22 be 4c de 91 be c5 c7 f6 3d e7 f3 17 bf
       -0.15825912 -0.28489912 0.12049822 -0.5935654
000310 54 f5 14 3d fd 94 04 be 92 10 e1 3d fd 2e b3 3d
       0.036366776 -0.1294746 0.10989489 0.08749197
000320 4f 12 45 be 00 c4 8a be 16 c9 09 be 42 ce c5 3d
       -0.19245265 -0.2710266 -0.13455614 0.09658481
000330 25 91 39 be 38 9a 87 be b4 6d ca bd 51 82 c9 3e
       -0.18121774 -0.26484847 -0.098842055 0.39357236
000340 a5 9b 45 bc 08 45 cd 3e 1c ad c6 be 22 9b bc 3b
       -0.012061034 0.4009173 -0.38803947 0.005755798
000350 31 89 02 bf bc 36 0f 3e f0 87 34 3c a1 ee a8 3d
       -0.5099059 0.13985723 0.011018738 0.0824864
000360 d1 50 19 3f 77 db 90 3e 49 e6 1e be 62 1a 48 3e
       0.5988894 0.28292438 -0.15517534 0.19541314
000370 72 ff 3d be 6c bb bb bd 17 d7 2a bc 0c d6 b3 3d
       -0.18554476 -0.09166607 -0.010427258 0.087810606
000380 de 9b 8d be 9b 79 dc be 18 0b 19 bd 93 1a fc 3e
       -0.2765798 -0.43061528 -0.037364095 0.49239025
000390 86 de 64 3e d4 15 a5 3e 1f f5 a4 3e 1c b1 9c 3e
       0.22350511 0.32243216 0.32218263 0.30603874
0003a0 4c 85 3c 3f f3 46 ac 3e ce 11 52 3e 4b f4 9c be
       0.73640895 0.3364788 0.20514604 -0.3065513
0003b0 db 64 42 3d e4 7f 65 be 29 5b 9d be c2 dc 04 be
       0.047459465 -0.22412068 -0.30733612 -0.12974837
0003c0 9f 7f f7 bd ed 4c 6c be d0 b5 29 be 44 57 7c bd
       -0.12084889 -0.2307622 -0.16573262 -0.06160666
0003d0 67 e0 2b be 4f c5 7c 3f bd d3 76 bd 4b 5f f5 3d
       -0.16784821 0.9873857 -0.060260523 0.11981066
0003e0 77 e2 cc 3e 9d 0d 95 be 8d be ad be a5 cb d9 3e
       0.4001653 -0.2911195 -0.3393444 0.4253818
0003f0 4a 37 9d be a0 55 11 3e f7 2a 1b 3d fd 40 48 3e
       -0.30706245 0.1419282 0.03788277 0.19556041

batch_norm1.running_var f4 [256]
000000 3d fb b6 3a ab fb 0a 3a 98 76 ef 3a 53 93 67 3a
       0.0013960373 0.00053017837 0.0018269597 0.00088339037
000010 78 78 b4 3a e3 d3 0f 3a a8 31 81 3a 0a 27 cc 39
       0.0013768813 0.00054865907 0.0009856718 0.00038938998
000020 a0 36 13 3b 4f cb be 3a 43 0b b7 3a 41 af 88 3a
       0.002246298 0.001455644 0.0013965148 0.0010428206
000030 c7 7b c4 39 32 17 08 3b fa 60 c1 3a 4e 20 f4 3a
       0.00037476255 0.0020765779 0.0014753633 0.001862535
000040 7d e9 04 3b b8 bf 24 3b f8 d0 9c 3a 17 f0 a0 3a
       0.0020280771 0.0025138687 0.0011964133 0.0012278584
000050 11 57 4d 3a ee e8 b2 3a 64 ed 3a 3b a1 bf 08 3b
       0.00078331033 0.0013649741 0.0028522843 0.0020866173
000060 15 85 1c 3b 9c d7 a3 3a 6f 9d a4 3a 52 c4 d9 3a
       0.0023883034 0.001250017 0.0012559126 0.0016614294
000070 7b 9e b6 3a 23 24 bd 3a 67 61 d3 3a 35 55 b4 3a
       0.0013932729 0.0014430325 0.0016127051 0.0013758304
000080 a5 9c 30 3b cf d5 54 3a 2f 5c c5 3a 55 04 d9 3a
       0.0026948836 0.0008119018 0.001505738 0.0016557077
000090 bc 2d 3c 3a 3c f3 6c 3a 90 97 cb 3a 16 60 06 3b
       0.0007178446 0.00090389303 0.001553284 0.002050405
0000a0 f6 d8 cc 3a 5f 90 cd 3a 66 a9 36 3a a9 f9 d1 3a
       0.0015628624 0.0015683285 0.00069679914 0.0016019839
0000b0 5d a8 b2 3a 26 7a af 3a ae a9 22 3b 0d ca 09 3a
       0.0013630498 0.0013387844 0.0024820375 0.0005256243
0000c0 ae 81 84 3a c4 23 eb 3a fe 3f f5 3a ad b4 12 3b
       0.0010109448 0.0017939736 0.0018711088 0.0022385523
0000d0 6c c2 ef 3a 79 4a 25 3b 7c a2 32 3b e2 50 48 3a
       0.0018292195 0.002522139 0.0027257493 0.0007641447
0000e0 ab f7 6f 3a 5a 7e 07 3b d5 3a 87 3a 2f 32 28 3b
       0.0009154032 0.0020674677 0.0010317216 0.0025664677
0000f0 6f 65 d8 3a 95 03 e0 3a 97 7a 10 3b 73 9a da 3a
       0.0016509722 0.0017090911 0.0022045725 0.001667811
000100 bd c0 11 3b 4a 33 08 3b b6 e7 65 3a 9a 0c 08 3b
       0.0022240125 0.0020782524 0.00087701844 0.0020759464
000110 84 8e 01 3b 86 d6 10 3b d3 0e d7 3a e8 e4 14 3b
       0.0019768784 0.0022100522 0.0016407616 0.0022719447
000120 82 62 e4 3a 37 ff 03 3b 02 2f 99 3a 73 87 b2 3a
       0.0017424377 0.0020141134 0.0011686983 0.0013620689
000130 61 91 15 3b 03 3c 60 3a bc a0 ef 39 c2 c5 e6 3a
       0.0022822248 0.00085538643 0.0004570539 0.0017606544
000140 c7 3b c0 3a a9 97 9d 39 3b d9 38 3b 50 1f 3a 3b
       0.0014666253 0.0003005837 0.0028205651 0.0028400011
000150 df f6 c1 3a 41 8e 89 3a 3b 5b 0d 3b 78 50 d3 3a
       0.0014798305 0.0010494665 0.002156927 0.0016122004
000160 8e be 37 3a 81 87 f0 3a 2b e7 59 3a 21 09 1d 3b
       0.0007009291 0.001835093 0.000831234 0.002396174
000170 90 39 ee 3a 94 f6 17 3b b7 c0 a7 3a ff a6 8a 3a
       0.0018175114 0.0023187743 0.0012798522 0.0010578333
000180 45 73 a3 3a b6 90 df 39 3b 26 37 3a ff 91 98 3a
       0.0012470266 0.00042641693 0.0006986593 0.001164019
000190 fc 7c a0 3a 26 3b cb 3a f7 ad f7 3a 27 06 74 3a
       0.001224428 0.0015505299 0.001889645 0.0009308778
0001a0 2d 79 86 3a c2 03 d0 3a e0 1e ac 3a 27 67 a4 3a
       0.0010259502 0.001587026 0.001313176 0.0012542949
0001b0 77 fa c4 3a 6d 80 a3 3a 1f 07 91 3a 38 e6 d8 3a
       0.0015028258 0.0012474187 0.0011064744 0.0016548103
0001c0 0f 28 70 3a 97 bd 07 3b 57 26 05 3b 11 84 5c 3a
       0.00091612426 0.002071237 0.0020317042 0.00084120134
0001d0 a5 2e a9 3a 4c c5 f7 3a 68 de b5 3a 30 08 d6 3a
       0.0012907578 0.0018903404 0.0013875486 0.0016329344
0001e0 e0 19 1e 3b 3d 0a 4d 3a 7a 33 fa 3a 61 04 84 3a
       0.002412431 0.0007821655 0.0019088828 0.0010072106
0001f0 3f 97 85 3a 3e c6 c6 3a c6 fd c8 39 cb 08 50 3a
       0.001019217 0.0015165282 0.0003833605 0.00079358806
000200 a3 07 b1 3a f8 a8 d1 3a 7f e6 73 3a af 24 18 3b
       0.0013506304 0.0015995791 0.0009304061 0.0023215225
000210 1c 9e 64 3a 96 93 17 3b 17 f4 12 3b 37 e0 31 3b
       0.000872107 0.002312874 0.002242332 0.00271417
000220 1c 0c 08 3b 6d 0d 02 3b bf 1a b0 3a a2 77 f2 3a
       0.002075917 0.0019844428 0.0013435705 0.0018498788
000230 b8 27 19 3b 81 42 29 3b 3c a7 b5 3a 81 e3 1f 3b
       0.0023369621 0.0025826993 0.0013859044 0.0024397078
000240 17 a6 12 3b 0b ec 23 3b b5 52 26 3b b4 09 e1 3a
       0.002237683 0.0025012519 0.0025378887 0.001716903
000250 1c 0f cc 3a 30 c1 ac 3a 7c e6 18 3a b5 35 ea 3a
       0.0015568468 0.0013180133 0.00058326847 0.0017868789
000260 4b 12 f5 3a 7d ee 1e 3a 82 64 f7 3a dc 3d cc 3a
       0.0018697468 0.0006062759 0.0018874558 0.00155824
000270 5b 93 e8 3a 6e cb cc 3a 39 9b fc 3a b9 a7 84 3a
       0.0017744111 0.0015624592 0.0019272334 0.0010120786
000280 4a e0 dc 3a 0b 1f 62 3a fa 4d 0a 3b b9 25 e3 3a
       0.0016851511 0.00086258416 0.0021103607 0.0017329968
000290 cc 95 db 3a 0b 74 ab 3a 33 73 7a 3a 78 a7 4d 3a
       0.0016753017 0.0013080848 0.0009553909 0.0007845084
0002a0 92 c2 82 3a b8 8f 45 3a 95 97 dc 3a c7 95 0d 3b
       0.0009976199 0.00075363694 0.0016829843 0.0021604167
0002b0 65 54 9d 3a 39 13 b2 3a 7f 3a ae 3a eb 27 cc 3a
       0.0012003301 0.0013586051 0.001329258 0.0015575861
0002c0 d1 3f 1e 3a 17 e8 0c 3b 2d 54 d0 3a 34 fe e3 3a
       0.0006036731 0.002150064 0.0015894227 0.0017394484
0002d0 11 d8 36 3a ac 06 0c 3a 7f 02 c5 3a 5c cc b0 3a
       0.00069749454 0.00053415704 0.0015030651 0.0013488638
0002e0 cf bc fa 3a 12 b8 ac 3a 55 b6 ef 3a f5 6f 0b 3b
       0.0019129756 0.0013177416 0.0018288592 0.0021276448
0002f0 68 e6 96 3a dc 28 2c 3b cf a5 85 3a 9a 89 fc 3a
       0.0011512758 0.0026269471 0.001019651 0.0019267083
000300 22 28 94 3a f2 cd 84 3a 86 ac 33 3b f9 f7 be 39
       0.0011303464 0.0010132177 0.0027416064 0.00036424378
000310 49 ab fd 3a c8 4d d4 3a 01 1a 03 3b 4e 8f f9 3a
       0.0019353415 0.0016197497 0.0020004513 0.00190399
000320 a9 b4 7e 3a 6b 3d 7d 3a 84 0f ba 3a cd df bb 3a
       0.00097162515 0.0009660336 0.0014195298 0.0014333666
000330 9e 9e 8f 3a af 6d 9e 3a 88 27 eb 3a 00 e7 f4 3a
       0.0010957306 0.0012087132 0.0017940858 0.0018684566
000340 28 ed e2 3a 1c c0 f0 3a 06 a3 31 3a 0c 1f 0d 3b
       0.001731311 0.00183678 0.00067763065 0.0021533398
000350 d0 e7 24 3a 82 0c cb 3a 0c 72 aa 3a b7 53 ea 3a
       0.0006290646 0.0015491399 0.0013003959 0.0017877732
000360 f6 ed dd 3a 95 9c 00 3b 85 4d c4 3a 81 a3 e2 3a
       0.001693188 0.001962458 0.0014976716 0.001729116
000370 3b 01 d2 3a 75 82 d3 3a 5b 6b cc 3a 21 88 ab 3a
       0.0016022095 0.0016136902 0.0015595959 0.0013086834
000380 4c 67 45 3a a4 1e ed 39 cf 5b b8 3a c7 a4 07 3b
       0.0007530346 0.00045226992 0.0014065447 0.002069758
000390 e3 49 bf 3a 64 3b ca 3a 84 56 d1 3a b3 bd f4 3a
       0.0014594164 0.0015429077 0.0015971218 0.0018672257
0003a0 c6 63 b3 3a dc 15 97 3a 50 7d 96 3a f2 4c 78 3a
       0.0013686351 0.00115269 0.0011481438 0.0009471915
0003b0 06 9f bb 3a 05 56 c3 3a f0 1c 6b 3a 67 4e a9 3a
       0.001431436 0.0014902955 0.00089688506 0.0012917042
0003c0 04 48 c2 3a 2f 17 30 3a 7f 6d c4 3a 73 99 b2 3a
       0.0014822488 0.0006717322 0.0014986246 0.0013626054
0003d0 78 53 db 3a 48 cf f6 3a e3 d7 08 3b 03 fb fc 3a
       0.001673325 0.0018830085 0.0020880632 0.0019300882
0003e0 d4 df e0 3a a5 48 a0 3a 3f 59 73 3a 7d 77 bf 3a
       0.001715655 0.0012228681 0.0009283013 0.0014607754
0003f0 f2 0f 9e 3a e5 82 03 3b ca 5b 15 3b b9 58 f4 3a
       0.0012059195 0.0020067033 0.0022790306 0.0018642164

fc2.weight f4 [128, 256]
000000 9b f7 5c bd ca 0b 49 bd 2c 3e 69 bd 3b 58 ed 3b
       -0.053947072 -0.04908351 -0.056944057 0.007243184
000010 fc 8c 59 3d 8f db 8f bb 2e 31 0c bd 30 b8 38 bd
       0.05311297 -0.004390187 -0.03422659 -0.04509753
000020 f0 a9 d3 3c a0 12 03 3d bd 82 5d 3d 02 5d db bc
       0.025837868 0.032000184 0.05407976 -0.026777748
000030 38 dc ac bd 0b b8 5c 3d 5d b4 41 bd 1c 3d 29 bd
       -0.08440441 0.053886455 -0.04729115 -0.041318044
000040 3a a4 1a bd b7 d4 24 3d 17 34 8c 3c 39 9f 19 bd
       -0.037754275 0.040241923 0.017114682 -0.037505362
000050 e4 b7 a1 bd 40 36 4f 3d 5f 14 24 bd ed c6 58 bc
       -0.078964025 0.050588846 -0.04005849 -0.013231021
000060 f4 8f 13 3c a4 3e a5 bc 34 bf a4 bd 71 64 ab 3b
       0.009006489 -0.020171471 -0.080442816 0.0052304794
000070 85 d2 4d bd 8a fe 1f 3d 8f 70 82 3d 7d ce e3 bc
       -0.050249595 0.039061107 0.06369125 -0.027808422
000080 a6 c4 2b 3d 95 3b d1 bb a4 44 cf b8 82 06 b6 bc
       0.041935585 -0.0063852766 -9.8833145e-05 -0.0222199
000090 fd 71 d1 3b 2f 9f 92 3d 08 27 1c 3d e8 ad 0c bd
       0.0063917623 0.07159268 0.03812316 -0.034345537
0000a0 0b 0f 22 bd 5c 93 ed 3c 24 5b 13 3d 2e a1 fe bc
       -0.039565127 0.02900093 0.03597559 -0.031082716
0000b0 9d 82 5e bd 78 0e b6 3b d6 99 ab bd c8 ef 10 bd
       -0.05432378 0.005555924 -0.08378951 -0.035384923
0000c0 32 58 9b bd d0 b9 42 bc a2 01 7e bc 7b f4 22 bc
       -0.07585181 -0.011885121 -0.015503319 -0.009945984
0000d0 17 1c 37 3c 73 fe 24 bd cf 66 a8 3d 28 1f cf bc
       0.011176131 -0.040281724 0.08222734 -0.025283411
0000e0 62 ef 7e 3a 79 b7 5f 3d 6e 16 07 bd 52 8e 94 bd
       0.0009725002 0.054618333 -0.032980375 -0.07253708
0000f0 de ed a5 bd bc 0e b7 3c f5 01 fe 3c b3 9d 88 3d
       -0.0810201 0.022345893 0.031006793 0.06670704
000100 76 95 2a bd a2 13 5e bd e2 e2 4d 3d 5a 85 00 bd
       -0.041646443 -0.054217942 0.0502652 -0.031377174
000110 44 23 26 bd 30 32 a9 3d 6a 0c 8b 3d de 1a 6f 3c
       -0.040560976 0.08261526 0.06789477 0.014593808
000120 02 bc 6a bc 1c d6 fa bc eb 2e b1 bd 2e 5c 3b bc
       -0.014327051 -0.030619673 -0.08651527 -0.011435552
000130 a1 16 b5 3c 21 a0 ef 3c db d7 e6 3c f4 8a ac bb
       0.022105517 0.02925116 0.0281791 -0.005265588
000140 a3 7e 9c bd fe 1a 51 3d d1 25 1c bd d3 6e 32 bd
       -0.076413415 0.051051132 -0.038122002 -0.04356272
000150 8e b2 be bc 67 db 4e 3c a0 45 84 bb b7 fa 46 3d
       -0.0232785 0.012625552 -0.0040366203 0.048578944
000160 2a 4d 80 3d c4 67 db bc 82 3c 12 bd 5c d2 60 3d
       0.06264718 -0.026782878 -0.035702236 0.054888114
000170 8d 8c 1d 3c 3d 82 ac bc b1 cb 24 bd 3a 36 b3 bd
       0.009616029 -0.021058196 -0.040233318 -0.08750577
000180 c9 9d 25 3d 7e 42 55 bc 6a 95 17 3c 83 82 9f bd
       0.04043368 -0.013016341 0.009251932 -0.07788565
000190 34 dc a9 3b 14 95 72 bd ac be 4b bb 2c 2d c2 bd
       0.005183721 -0.059224203 -0.003108899 -0.09481272
0001a0 5f 82 6c bd 26 99 32 bc 2d fd 53 3d d4 80 38 3d
       -0.05774152 -0.010900771 0.05175512 0.045044735
0001b0 39 60 95 bd d8 33 5b bd 86 fe 17 3c e6 aa 15 3d
       -0.07293744 -0.05351624 0.009276992 0.036539935
0001c0 e0 9c 6f bd f8 c4 8e bd e4 59 b9 bc b1 2f 75 bd
       -0.058499217 -0.069711626 -0.022625871 -0.059859935
0001d0 67 00 89 bd 12 81 ad 3b bd d6 e0 bb cd 32 6f bd
       -0.0668953 0.0052949274 -0.0068615363 -0.058398057
0001e0 cd 7e 53 bc a9 60 59 bd f4 e3 56 bc 46 a2 1e 3d
       -0.01290865 -0.053070698 -0.013115872 0.038728975
0001f0 d1 44 18 3d 91 87 12 3c 20 cb 26 bd 8b bd ad 3b
       0.037175003 0.008943454 -0.04072106 0.0053021363
000200 70 bc 1e bb 54 76 ba 3d df 2a 32 3d 88 ec 14 3d
       -0.0024221204 0.091046005 0.043497916 0.036358386
000210 19 b0 bf bc f3 c2 d8 ba 94 e8 50 bb 03 5b 54 bd
       -0.0233994 -0.0016537592 -0.0031876909 -0.051844608
000220 f1 70 40 3d 46 59 1e bd 42 7f 84 3d 98 04 f8 3c
       0.04698271 -0.038659357 0.06469585 0.030275628
000230 a4 0d 21 bd 1d 37 4c 3d 71 69 42 bd 29 01 69 3c
       -0.03931965 0.049857248 -0.047463838 0.014221468
000240 d2 a4 b3 bc 07 6a 37 bd 42 3e 15 bd 4d 2f b3 3d
       -0.021929178 -0.04477885 -0.036436327 0.08749256
000250 88 af 3e bd 4e 0f e1 3b 0b d2 2e 3d 32 cb 41 3d
       -0.04655412 0.0068682795 0.04268078 0.047312923
000260 6f 79 01 3c 45 48 87 ba c3 13 58 3d 64 0c 5c bd
       0.007902487 -0.0010321221 0.05275322 -0.053722754
000270 8e 8c e1 3a 85 18 4d bd db 7b 8a 3d b7 11 47 3d
       0.0017208026 -0.05007221 0.06761905 0.04860088
000280 04 9e 40 3d 90 d9 8f bd f4 0c 29 3d b8 e1 47 3c
       0.047025695 -0.07023919 0.04127212 0.012199812
000290 da 6a 6a 3d 56 47 ba bc 41 d0 aa bc 36 5e dc bc
       0.057230808 -0.022739094 -0.020851256 -0.026900392
0002a0 48 d5 62 3c 1b e1 fb ba 2c 05 50 3d ce b9 30 3b
       0.0138447955 -0.0019216867 0.050786182 0.0026966217
0002b0 64 a4 17 3d e5 c3 a9 bd 7f 2f 5a bd b1 4e 60 bd
       0.03702201 -0.08289317 -0.053267952 -0.054762546
0002c0 be 72 38 bd 8e b1 40 bd 44 6b e7 bc 96 1d 2f 3d
       -0.0450313 -0.04704433 -0.02824939 0.042752825
0002d0 54 40 0a bd 18 ec 7b 3d ab 54 7e 3d df 0d 5d 3d
       -0.033752754 0.061504453 0.062092464 0.053968307
0002e0 a5 99 29 3d 07 cf 68 bd 1f fb 20 bd 81 3d c5 bc
       0.041406292 -0.05683806 -0.039301988 -0.024077179
0002f0 9b e5 29 bd 5e be 83 bc 24 dd 38 3d d9 22 eb bc
       -0.041478734 -0.016081985 0.04513277 -0.02870314
000300 f1 c0 a6 bc 49 9f 22 bd 8c db 8e 3d ab da 16 3d
       -0.020355674 -0.039702687 0.06975469 0.03682963
000310 01 1f 64 3d 8d 92 d0 bc e9 24 f8 3c 08 4d 87 bc
       0.05569363 -0.025460506 0.030291038 -0.016516224
000320 49 13 a4 bd 5b 1a d2 bd 56 94 a2 3c 44 36 06 3d
       -0.08011491 -0.10258933 0.019846123 0.032766595
000330 46 c4 66 bb 02 22 ac 3c 81 6a e6 bc e8 a6 51 3b
       -0.0035212203 0.02101231 -0.028126957 0.0031990353
000340 ac 07 0c bd 3e 3d 41 3d b7 b7 a6 3d f5 0d ee bb
       -0.034187004 0.047177546 0.081405096 -0.0072648474
000350 e3 2d 06 bc 2e 75 09 bc 35 2f 3d bd 4f bd 84 3c
       -0.008189651 -0.008389754 -0.0461876 0.01620355
000360 8f 29 96 ba f3 cc 7a 3d 97 d5 ae 3c 34 ce 43 bc
       -0.0011456477 0.06123061 0.021342082 -0.011951018
000370 9d 28 7e 3d 16 fe 01 3d ef fd 87 3d 54 48 2a bd
       0.06205045 0.031736456 0.06640231 -0.041572884
000380 21 79 81 3b 6c 60 cb bb b0 66 8c 3d 7b 92 b6 3d
       0.0039512073 -0.0062065627 0.068555236 0.08914658
000390 80 c6 ae 3c d7 c9 f4 bc 2f 62 93 bb 83 e2 89 3d
       0.021334887 -0.029881401 -0.0044977884 0.06732657
0003a0 6b 49 de 3c 82 fd 7e 3d 2e a5 8b 3d 91 75 03 bd
       0.027134618 0.062253483 0.06818615 -0.032094542
0003b0 15 be 83 bd cd 58 88 3d bd 13 83 bd 84 45 f6 bb
       -0.0643274 0.066575624 -0.06400249 -0.007515611
0003c0 cd 12 52 bc 2c ff e6 ba b9 a0 cd bb 8d 32 1e bd
       -0.012821865 -0.0017623655 -0.006275263 -0.038622428
0003d0 45 46 09 3d 05 cd 8e bc 90 9d 27 bd 66 18 1a bd
       0.03351428 -0.017431745 -0.040921748 -0.037620924
0003e0 f9 98 90 3c 78 1e b3 bd 2a 18 7d 3d 13 75 19 bd
       0.017651068 -0.08746046 0.061790623 -0.037465166
0003f0 f4 b3 04 3d cb 15 3d 3d cc c6 2b ba f5 9f 15 bb
       0.03239818 0.04616336 -0.00065527554 -0.0022830938
