best_model.pth (torch, 369890 bytes, 21 tensors)

fc1.weight f4 [256, 178]
0	0x3d1bca55	0.038034756
1	0x3da8d38a	0.08243473
2	0x3dcd0f9c	0.10012743
3	0x3d8cc371	0.06873215
4	0x3bbd6667	0.0057800296
5	0x3cb84e54	0.022498287
6	0x3da5c49f	0.08094143
7	0x3ce59fde	0.028030332
8	0x3d4fc92f	0.050728973
9	0xbd6ba948	-0.057534486
10	0xbd021d8d	-0.031766463
11	0xbcecd79b	-0.028911402
12	0xbc10bd7e	-0.008834241
13	0xbdc1f9da	-0.094714835
14	0xbcc0481f	-0.02347189
15	0x3b8a89a3	0.0042278334
16	0xbd4e5cda	-0.05038152
17	0xbd65f525	-0.05614199
18	0xbdbbdb49	-0.09172685
19	0x3ccc2713	0.024920976
20	0xbceddc40	-0.029035687
21	0x3d319b53	0.04336102
22	0x3d458ac5	0.048228044
23	0xbcda2831	-0.026630493
24	0x3d5a4f97	0.05329856
25	0x3e2ba368	0.16761553
26	0x3e367f9c	0.17822117
27	0x3e434fb8	0.19073379
28	0x3e411eff	0.1885948
29	0x3d52bcf2	0.051449724
30	0x3c90fce5	0.017698715
31	0xbcb62b94	-0.022237577
32	0x3d8ba624	0.06818798
33	0x3cfcb4f1	0.030847998
34	0xbc66d90d	-0.014089835
35	0xbdebde27	-0.115169816
36	0xbdf4da63	-0.119557165
37	0xbe145ff7	-0.14489733
38	0xbd76c8fd	-0.06025027
39	0xbe22b4e9	-0.15889324
40	0xbdc8c8a4	-0.09803894
41	0xbdb82f33	-0.089933775
42	0x3b159e6e	0.0022830027
43	0x3c708a1a	0.0146813635
44	0x3bf4713d	0.007459788
45	0xbce3b61b	-0.027796796
46	0xbd6856f4	-0.05672355
47	0xbd0c6763	-0.034278285
48	0x3d71579a	0.058921434
49	0x3d0e72ab	0.034777325
50	0x3ddc2fad	0.10751281
51	0x3d2f812a	0.04284779
52	0x3d9bac7b	0.076012574
53	0x3d27817f	0.04089498
54	0xbd49f91e	-0.049309842
55	0xb9c06e34	-0.00036703201
56	0xbddc0a5e	-0.10744165
57	0xbcd9f709	-0.026607053
58	0x3cfefc27	0.031126095
59	0xbc691270	-0.014225587
60	0xbd4bbe7c	-0.049742207
61	0x3d603d84	0.054746166
62	0x3d56a624	0.052404538
63	0xbc6f86f3	-0.014619577
64	0xbcc72ec1	-0.024314286
65	0xbd165362	-0.036700614
66	0xbd3d5220	-0.0462209
67	0xbd539073	-0.05165143
68	0xbd69177a	-0.056907155
69	0xbdb6d60a	-0.089275435
70	0xbd4b3b10	-0.049616873
71	0xbcee93d0	-0.029123217
72	0xbcf55df7	-0.029952032
73	0x3d44759b	0.04796372
74	0xbdf0fada	-0.11766596
75	0xbc667cea	-0.014067868
76	0xbdadeddd	-0.084926344
77	0xbc602a90	-0.013682023
78	0x3bc2e1de	0.0059473356
79	0xbdfb2df3	-0.122646235
80	0xbe1a18c6	-0.15048513
81	0xbe1f2e28	-0.15544951
82	0xbdcd1a90	-0.10014832
83	0xbe09e10a	-0.13464752
84	0x3d059417	0.032611933
85	0xbd750508	-0.05981925
86	0x3d1886fa	0.0372381
87	0xbcbc7cab	-0.023008665
88	0x3c690ab9	0.014223748
89	0x3d9d1d49	0.07671601
90	0x3d8498ea	0.064744785
91	0x3e0d6e48	0.138116
92	0x3cbcbc1f	0.023038922
93	0xbbe78e0b	-0.0070664934
94	0x3c390c15	0.0112943845
95	0x3d937cba	0.07201524
96	0xbcd650fe	-0.026161667
97	0xbc4ee962	-0.012628885
98	0xbdbd39c7	-0.09239536
99	0x3c9630e1	0.018333854
100	0xbd6732a9	-0.056444798
101	0xbdb12441	-0.08649493
102	0xbd705bf6	-0.05868145
103	0xbdab48f3	-0.08363523
104	0xbda87f53	-0.0822741
105	0xbd992bb6	-0.0747904
106	0xbdddfae5	-0.1083887
107	0xbd56935d	-0.05238663
108	0xbe20c524	-0.15700203
109	0xbe05b495	-0.13057168
110	0xbd7363d9	-0.059421394
111	0xbda4c76c	-0.08045849
112	0xbd3504b0	-0.044193923
113	0x3cf11418	0.029428527
114	0x3d071a2d	0.032983948
115	0x3d7cce6d	0.0617203
116	0x3d9731a2	0.073825136
117	0xbd4a89ff	-0.04944801
118	0xbba26988	-0.004956428
119	0x3d9b0eea	0.07571204
120	0x3db7fd82	0.089839
121	0x3e438bdd	0.19096322
122	0x3e4c11f0	0.19928718
123	0x3dfff883	0.12498572
124	0xbdfaca4d	-0.12245617
125	0xbe2f8a80	-0.17142677
126	0xbdcd92ff	-0.10037803
127	0xbdc4b9ff	-0.096057884
128	0x3c2af52e	0.010434432
129	0xbd7fba63	-0.06243361
130	0xbd8385ae	-0.06421982
131	0x3dba7d53	0.09105935
132	0xbcf0bbb5	-0.02938638
133	0x3d4a99b2	0.04946298
134	0x3d24b9db	0.040216308
135	0x3d2bf3af	0.04198044
136	0xbcc5f2d8	-0.024163648
137	0xbd492149	-0.04910401
138	0xbcdcd0b7	-0.026954992
139	0x3c1e6cad	0.009669465
140	0x3b3e91c4	0.0029078582
141	0x3ddbbb83	0.107291244
142	0xbca4764f	-0.020075945
143	0x3d049044	0.032364145
144	0x3c8a012f	0.016846268
145	0x3c9c1fe8	0.019058183
146	0xbd577182	-0.052598484
147	0xbda73394	-0.081641346
148	0xbdeb21c1	-0.114810474
149	0xbe1bc6b7	-0.15212522
150	0xbe07022c	-0.13184422
151	0xbe04d4bc	-0.12971777
152	0xbddc4664	-0.107556134
153	0xbe384952	-0.1799672
154	0xbe0f9496	-0.14021525
155	0xbe08fa89	-0.13376822
156	0xbd971bbd	-0.073783375
157	0xbda7b86d	-0.08189473
158	0x3d76327b	0.060106736
159	0x3debf21b	0.11520787
160	0x3df455ef	0.11930453
161	0x3d97ece2	0.07418229
162	0x3d6d5b28	0.05794826
163	0x3d10d209	0.035356555
164	0x3ccb3ee7	0.024810268
165	0xbca61106	-0.02027179
166	0x3b828ac4	0.0039838273
167	0xbd2705b1	-0.040776912
168	0xbb53c89b	-0.0032315615
169	0xbd8d0869	-0.0688637
170	0x3d330327	0.04370418
171	0x3cc95dac	0.024580799
172	0x3d551d87	0.052030113
173	0x3d456061	0.048187617
174	0x3d93adca	0.07210882
175	0x3d21b9ac	0.03948371
176	0xbd78667e	-0.06064462
177	0xbdbbf505	-0.09177593
178	0xbe1ece93	-0.1550849
179	0xbdbe36b4	-0.092877775
180	0xbd07205a	-0.032989837
181	0xbcd1dee2	-0.025618974
182	0x3d98a257	0.07452839
183	0x3cd7b7bb	0.026332727
184	0x3dd9a8dc	0.106279105
185	0x3daaca61	0.08339382
186	0x3dc67e0d	0.09692011
187	0x3beb0e7e	0.0071733585
188	0x3dd71054	0.10501161
189	0x3dd625f2	0.10456456
190	0x3d2528f9	0.040322278
191	0xbc250797	-0.01007261
192	0x3db52b7d	0.08846185
193	0x3b411560	0.0029462203
194	0x3d6d4b4f	0.057933148
195	0x3ba1398c	0.00492019
196	0xbc22e0ae	-0.009941263
197	0xbd168440	-0.036747217
198	0xbd0c3051	-0.034225766
199	0xbdc24c27	-0.09487181
200	0x3bcf39d8	0.006324034
201	0xbd8689f2	-0.0656928
202	0x3cd1521f	0.025551854
203	0xbd808a24	-0.06276348
204	0xbdbf3990	-0.09337151
205	0xbe0a0bb9	-0.13481034
206	0xbd9aef0b	-0.07565125
207	0xbd36d4ed	-0.044636656
208	0x3cf99f7f	0.030471561
209	0x3db2f86e	0.087387905
210	0xbcff70e9	-0.03118177
211	0x3c967ba6	0.018369507
212	0xbda362f6	-0.0797786
213	0x3c2c1eda	0.010505402
214	0xbd8d41d7	-0.068973236
215	0xbe25e145	-0.16199215
216	0xbda490e9	-0.08035452
217	0xbe1a8bd2	-0.150924
218	0xbdc7ed51	-0.097620614
219	0x3d4caf2f	0.049971756
220	0xbceb48e5	-0.028721282
221	0x3c9a4b78	0.018834814
222	0x3e00824d	0.12549706
223	0x3e4caf15	0.19988663
224	0x3dca3c4d	0.09874783
225	0x3dea1174	0.1142911
226	0x3db9b566	0.09067802
227	0xbd1ce058	-0.03829989
228	0xbba6e28c	-0.0050929245
229	0x3da16323	0.07880237
230	0x3e1d9a20	0.15390825
231	0x3e05a083	0.13049512
232	0x3dfb36a4	0.12266281
233	0xbc160800	-0.009157181
234	0x3d8db075	0.06918422
235	0xbc84ca98	-0.016209885
236	0x3ccb11d2	0.02478877
237	0xbdbc039b	-0.09180375
238	0xbdeae217	-0.114689045
239	0xbb89ea54	-0.0042088423
240	0x3d8f0df8	0.06985086
241	0x3b5cc100	0.0033684373
242	0x3ba9a12e	0.005176685
243	0x3ca8a11c	0.020584635
244	0xbcc98e88	-0.024604097
245	0xbdb436fc	-0.0879955
246	0xbcc6e552	-0.02427927
247	0x3d1a024f	0.037599858
248	0x3d8158b6	0.063157484
249	0x3dccfceb	0.10009178
250	0x3e012ba0	0.12614298
251	0xbb17965b	-0.002313039
252	0x3d03700c	0.032089278
253	0xbcb7671c	-0.022388034
254	0x3dd15a99	0.10222358
255	0x3d81b367	0.063330464

fc1.bias f4 [256]
0	0xbed83b48	-0.42232728
1	0xbeeaceef	-0.45861003
2	0xbe4aa3f3	-0.19789104
3	0xbde81abe	-0.11333226
4	0xbee7cc90	-0.45273256
5	0x3d8ac70a	0.06776245
6	0xbe9e372f	-0.30901477
7	0xbdb90ef5	-0.09036056
8	0x3c869d03	0.01643229
9	0x3da700b6	0.081544325
10	0xbeebd516	-0.4606101
11	0xbda6027b	-0.08105942
12	0xbe1a4c82	-0.15068248
13	0xbe4e4aec	-0.20145768
14	0xbe573cfc	-0.21019357
15	0x3d540357	0.051760998
16	0x3e22ea38	0.1590966
17	0xbead7703	-0.3387986
18	0xbcc37a67	-0.023862077
19	0x3e16cffd	0.14727779
20	0x3df75a79	0.12077803
21	0x3bc1bf28	0.00591268
22	0xbe8548d2	-0.2603212
23	0xbe40505f	-0.18780659
24	0xbdbebed1	-0.09313739
25	0xbd3f48b5	-0.0467002
26	0xbdf54608	-0.11976248
27	0x3c1f0dd9	0.009707891
28	0xbe3940bb	-0.18091099
29	0xbdb9b30c	-0.090673536
30	0xbd67784d	-0.056511212
31	0xbda74f5e	-0.08169435
32	0x3cd32223	0.025773114
33	0x3b713731	0.0036806578
34	0x3d4c441b	0.049869638
35	0x3d8c7556	0.068583176
36	0x39d18503	0.00039962688
37	0x3e0dff9a	0.13867036
38	0xbcfc19ce	-0.030774023
39	0x3d6ad6db	0.05733381
40	0xbe5c1dc5	-0.21495731
41	0xbdcb508d	-0.09927473
42	0xbe33b452	-0.17549255
43	0xbeb070c7	-0.34461042
44	0x3cf72217	0.030167622
45	0xbe8ebf20	-0.27880192
46	0x3ca0156c	0.019541465
47	0xbec173ab	-0.3778356
48	0xbe895380	-0.26821518
49	0x3d22d05f	0.0397495
50	0xbdd5896d	-0.104266025
51	0xbdc60b90	-0.09670174
52	0xbc4022eb	-0.011727075
53	0xbe6d2fd1	-0.23162772
54	0x3d85c93e	0.065325245
55	0xbe88c252	-0.26710755
56	0xbeb08809	-0.34478787
57	0xbe945987	-0.28974554
58	0xbd0a2e9f	-0.033735868
59	0xbe200b10	-0.1562922
60	0xbce3c7c5	-0.027805218
61	0xbeb71161	-0.35755447
62	0xbe6ac238	-0.22925651
63	0xbe56fb96	-0.2099441
64	0xbe061d2b	-0.13097064
65	0x3d1314aa	0.03590838
66	0xbdc26c34	-0.09493294
67	0xbe1fc113	-0.15600996
68	0xbe89cc24	-0.2691356
69	0xbd87f030	-0.06637609
70	0xbde52b4b	-0.11189898
71	0xbe1caaed	-0.15299578
72	0xbee34f18	-0.4439628
73	0xbde77c6c	-0.113030285
74	0xbebd3a70	-0.36958647
75	0xbeccc4b0	-0.3999381
76	0xbec26b5f	-0.37972543
77	0xbb101d08	-0.002198996
78	0xbd803ec6	-0.06261973
79	0xbde8f631	-0.11375082
80	0xbccd9e59	-0.02509992
81	0xbe9377e2	-0.288024
82	0x3def4013	0.11682143
83	0xbda6d785	-0.08146576
84	0xbccbd322	-0.02488095
85	0xbd01ae25	-0.031660218
86	0x3cb82f2c	0.02248343
87	0xbd40f96e	-0.047112875
88	0xbeb05bdd	-0.34445086
89	0xbe53ab7f	-0.2067089
90	0xbcc7fa4b	-0.024411341
91	0xbe7b75d3	-0.24556665
92	0x3e08ff2e	0.13378593
93	0x3c7ad8bb	0.015310462
94	0x3cf8edd3	0.03038684
95	0x3d110cda	0.035412647
96	0x3dc5eb62	0.09664036
97	0x3d2eab30	0.042643726
98	0xbe299644	-0.16561228
99	0x38daf030	0.000104397885
100	0xbdffb318	-0.12485331
101	0xbe5df84a	-0.21676746
102	0xbd59431e	-0.053042524
103	0x3ea4e71a	0.32207566
104	0x3d313151	0.043259922
105	0x3da6ff5c	0.08154175
106	0x3e2a358a	0.16621986
107	0xbd27694b	-0.0408719
108	0xbe604ebe	-0.21905038
109	0xbecdcad1	-0.401938
110	0xbd72c861	-0.059273127
111	0xbead0882	-0.33795553
112	0xbcd8edfd	-0.02648067
113	0x3c8b5b85	0.017011413
114	0xbe361c55	-0.17784245
115	0x3d81cd4c	0.063379854
116	0xbe780911	-0.24222209
117	0xbe727c5d	-0.23680253
118	0xbf03a0ab	-0.51417035
119	0xbde26a02	-0.11055376
120	0xbd4f6c3c	-0.05064033
121	0xbeb313ab	-0.34975943
122	0xbe8265ff	-0.25468442
123	0xbd044984	-0.032296672
124	0xbe330b84	-0.17484862
125	0x3e278976	0.16361031
126	0x3dfde385	0.123969115
127	0xbdf1c983	-0.118060134
128	0x3dc37037	0.09542888
129	0xbe9e973f	-0.30974767
130	0xbee8938a	-0.45425063
131	0xbdfdc8c4	-0.12391809
132	0x3d80ba67	0.062855534
133	0x3d949122	0.072542444
134	0x3da545d6	0.08069961
135	0xbe153b8e	-0.145735
136	0xbe00d2d6	-0.12580428
137	0xbe04a4ec	-0.12953538
138	0x3cef0a23	0.029179638
139	0x3e66b820	0.22531176
140	0x3d02ebeb	0.03196327
141	0x3e4ee56b	0.20204704
142	0xbd9a9bcc	-0.07549247
143	0xbdcc8438	-0.09986156
144	0x3d3d5e55	0.04623254
145	0xbd5ab251	-0.053392712
146	0x3dca55e9	0.09879667
147	0x3e5323b9	0.20619096
148	0xbe9fdb67	-0.31222078
149	0x3d35be8b	0.04437117
150	0xbdf86385	-0.12128357
151	0xbe9b64da	-0.3035038
152	0xbe6c52a6	-0.23078403
153	0x3e516caf	0.20451616
154	0x3e097a4f	0.13425563
155	0xbd46993a	-0.048485972
156	0x3e854519	0.2602928
157	0xbd72ba9b	-0.059259992
158	0xbec2f6d6	-0.38078946
159	0xbe81ca26	-0.2534954
160	0x3d233cd0	0.039852917
161	0xbebd1056	-0.36926526
162	0xbe24ab09	-0.1608087
163	0x3da6d8c0	0.081468105
164	0xbe33c47a	-0.17555419
165	0x3da585ad	0.08082137
166	0x3e81d22d	0.25355664
167	0x3d9e7065	0.07736281
168	0xbe0d5e40	-0.13805485
169	0xbe754a2b	-0.23954074
170	0xbeed7444	-0.46377766
171	0xbe4ed7f0	-0.20199561
172	0xba1077d5	-0.00055110204
173	0xbeb50e9d	-0.35362712
174	0xbd2aa4ad	-0.041660953
175	0x3db6c8bc	0.08925006
176	0xbf177bed	-0.5917347
177	0xbd368150	-0.044556916
178	0xbe165caf	-0.14683793
179	0xbd6e1819	-0.05812845
180	0x3cbacbff	0.022802351
181	0xbdae663b	-0.08515593
182	0xbe864404	-0.26223767
183	0xbdf33a9d	-0.11876414
184	0xbe8eb141	-0.2786961
185	0xbe80d0e6	-0.25159377
186	0xbdb45f24	-0.08807209
187	0xbd3b288e	-0.045692973
188	0xbe6c5fad	-0.23083372
189	0xbe135b6c	-0.14390343
190	0x3e064c2b	0.13114993
191	0x3dab37c8	0.08360249
192	0x3c90d21f	0.017678319
193	0xbe22c444	-0.15895182
194	0xbe53924b	-0.20661275
195	0xbeead7a0	-0.45867634
196	0xbc23b842	-0.009992661
197	0x3e8137be	0.2523784
198	0x3d9a921c	0.075473994
199	0xbe003804	-0.12521368
200	0x3c84a28c	0.01619079
201	0xbe24eb4d	-0.16105385
202	0xbe8ed81f	-0.27899262
203	0x3d68ead0	0.05686456
204	0x3e0fa97f	0.14029501
205	0x3d018869	0.03162423
206	0xbf055051	-0.5207568
207	0xbedf9264	-0.43666375
208	0xbdcca2f0	-0.09992015
209	0xbe8819f7	-0.2658231
210	0xbe7a5c3f	-0.24449252
211	0xbd0f0e53	-0.03492577
212	0xbe76cd00	-0.24101639
213	0xbe1140a0	-0.14184809
214	0x3e3a277b	0.18179123
215	0xbe7c2320	-0.24622774
216	0xbbd43f2e	-0.006477258
217	0x3dd492a8	0.10379535
218	0xbe5e1056	-0.21685919
219	0xbe464e96	-0.19365916
220	0x3dac35b8	0.084086835
221	0x3e16f9fa	0.14743796
222	0xbdaf14be	-0.08548878
223	0xbdebacb1	-0.11507548
224	0x3d98fe15	0.07470337
225	0xbe1b3f4b	-0.15160863
226	0xbe9daf01	-0.3079758
227	0xbea1ec8a	-0.31625777
228	0xbd47e00e	-0.04879766
229	0xbda0321c	-0.078220576
230	0x3c960302	0.018311981
231	0x3cc65e05	0.024214754
232	0x3d02d540	0.031941652
233	0x3d819eda	0.06329127
234	0xbe7d856a	-0.24757925
235	0xbe0a6c5d	-0.135179
236	0xbd03806d	-0.0321049
237	0xbd90f124	-0.07077244
238	0xbe98f487	-0.2987406
239	0xbebf571a	-0.3737114
240	0xbe665d38	-0.22496498
241	0xbd17f840	-0.037101984
242	0xbdce4fce	-0.10073815
243	0xbe700fb9	-0.23443498
244	0xbe3bded8	-0.18346727
245	0xbd39b770	-0.045340955
246	0x3d817893	0.06321826
247	0xbdef5abb	-0.11687227
248	0xbdf01336	-0.11722414
249	0xbd746114	-0.059662893
250	0xbe4638fc	-0.19357675
251	0xbd428e4e	-0.047498994
252	0x3b46ebe4	0.0030353004
253	0xbea90293	-0.33009776
254	0xbeb61342	-0.35561568
255	0xbdbb5f88	-0.091490805

batch_norm1.weight f4 [256]
0	0x3f88c56a	1.0685246
1	0x3f876b5f	1.0579642
2	0x3f8494f2	1.0357955
3	0x3f8ac9bd	1.0842816
4	0x3f876ebb	1.0580667
5	0x3f7c788c	0.9862144
6	0x3f87d265	1.0611082
7	0x3f83fad6	1.0310924
8	0x3f970cc8	1.1800776
9	0x3f9d2165	1.2275816
10	0x3f8c2e4d	1.095163
11	0x3f779bee	0.96722305
12	0x3f849c55	1.0360209
13	0x3f85f68e	1.0465868
14	0x3f8d6d73	1.1049026
15	0x3f79ac93	0.9752895
16	0x3f8e6abe	1.1126325
17	0x3f85397a	1.0408165
18	0x3f7920ff	0.97315973
19	0x3f7bfa8e	0.9842919
20	0x3f8e2a71	1.1106702
21	0x3f8bb269	1.0913821
22	0x3f85be11	1.0448629
23	0x3f85a71c	1.0441623
24	0x3f852d16	1.0404384
25	0x3f8746f5	1.0568529
26	0x3f9366cc	1.1515746
27	0x3f8d9dd8	1.1063795
28	0x3f8244f5	1.0177294
29	0x3f8cdfb7	1.1005772
30	0x3f8cfb50	1.1014194
31	0x3f86c24e	1.0528047
32	0x3f92b8ac	1.1462607
33	0x3f8db851	1.1071874
34	0x3f86fc44	1.0545735
35	0x3f866e5f	1.0502433
36	0x3f82a05b	1.0205187
37	0x3f8fba6c	1.1228766
38	0x3f75b20a	0.9597479
39	0x3f8c459d	1.0958744
40	0x3f70f067	0.94116825
41	0x3f93a20f	1.1533831
42	0x3f763a80	0.96183014
43	0x3f80f6f4	1.0075364
44	0x3f94a1af	1.1611842
45	0x3f88daea	1.0691807
46	0x3f8c2534	1.0948853
47	0x3f6f26df	0.9341869
48	0x3f8352d6	1.0259655
49	0x3f92cc84	1.1468663
50	0x3f7d5ff6	0.9897455
51	0x3f86e42b	1.0538381
52	0x3f7b39fd	0.9813536
53	0x3f84f8a2	1.0388377
54	0x3f85cec3	1.0453724
55	0x3f763e55	0.9618886
56	0x3f86b008	1.052247
57	0x3f86e5c9	1.0538875
58	0x3f76cfe7	0.96410984
59	0x3f8c6520	1.0968361
60	0x3f7986e6	0.97471464
61	0x3f885d00	1.0653381
62	0x3f82eb8d	1.0228134
63	0x3f91560d	1.1354386
64	0x3f8fddf8	1.1239614
65	0x3f9423ec	1.1573462
66	0x3f7b28a2	0.98108876
67	0x3f8cf948	1.1013575
68	0x3f837dcd	1.0272766
69	0x3f90178c	1.1257186
70	0x3f8d0824	1.1018109
71	0x3f87946f	1.0592173
72	0x3f802a68	1.0012941
73	0x3f897e77	1.0741719
74	0x3f874a4e	1.0569551
75	0x3f7fecc8	0.99970675
76	0x3f76147f	0.96125025
77	0x3f8f10bf	1.1176986
78	0x3f8485a2	1.0353281
79	0x3f9aee2e	1.2103937
80	0x3f8cafaf	1.0991114
81	0x3f8a6571	1.0812207
82	0x3f851a55	1.0398661
83	0x3f87c6af	1.0607508
84	0x3f8cd6eb	1.1003088
85	0x3f9072a1	1.1284982
86	0x3f8d63d9	1.1046096
87	0x3f749e00	0.9555359
88	0x3f8a9945	1.0828024
89	0x3f8c8ebf	1.0981063
90	0x3f80dd2d	1.0067497
91	0x3f81d55f	1.0143241
92	0x3f8c3979	1.0955039
93	0x3f622839	0.88342625
94	0x3f7729da	0.96548235
95	0x3f9092e5	1.1294829
96	0x3f86956f	1.0514354
97	0x3f948e71	1.160597
98	0x3f918b66	1.1370666
99	0x3f8bf02a	1.0932667
100	0x3f876828	1.0578661
101	0x3f7879d6	0.97060907
102	0x3f836051	1.0263768
103	0x3f8c0587	1.0939187
104	0x3f86a629	1.0519458
105	0x3f7dd4fc	0.99153113
106	0x3f8fe1b0	1.1240749
107	0x3f9910e7	1.1958283
108	0x3f7aeaf8	0.98014784
109	0x3f8c62bd	1.0967633
110	0x3f714396	0.9424375
111	0x3f7c0f2c	0.9846065
112	0x3f7c1fbf	0.9848594
113	0x3f81479f	1.0099982
114	0x3f76c74a	0.9639784
115	0x3f848787	1.035386
116	0x3f878416	1.0587184
117	0x3f86c3c1	1.0528489
118	0x3f858aa3	1.0432934
119	0x3f88ebd5	1.069697
120	0x3f813bc9	1.009637
121	0x3f82b109	1.0210277
122	0x3f752eed	0.9577473
123	0x3f8e545b	1.1119493
124	0x3f772f42	0.96556485
125	0x3f82f491	1.0230886
126	0x3f969746	1.1764915
127	0x3f7ac31b	0.9795396
128	0x3f88f6a4	1.0700269
129	0x3f803335	1.0015627
130	0x3f7cd1e9	0.987578
131	0x3f882022	1.0634806
132	0x3f878f44	1.0590596
133	0x3f90ea31	1.132147
134	0x3f7ceac8	0.9879575
135	0x3f861814	1.0476098
136	0x3f950c2e	1.1644342
137	0x3f83f182	1.0308077
138	0x3f9022bb	1.1260599
139	0x3f864b01	1.0491639
140	0x3f81e770	1.0148754
141	0x3f7d1ca3	0.9887182
142	0x3f826e53	1.0189918
143	0x3f889790	1.0671253
144	0x3f99b492	1.2008231
145	0x3f904d16	1.1273525
146	0x3f9b7c28	1.2147264
147	0x3f7dd60c	0.99154735
148	0x3f8c36b1	1.095419
149	0x3f863f8a	1.048814
150	0x3f703169	0.93825394
151	0x3f76aa07	0.9635319
152	0x3f848e9d	1.0356022
153	0x3f810e9d	1.0082585
154	0x3f8c807e	1.0976713
155	0x3f8612de	1.0474508
156	0x3f91299f	1.1340827
157	0x3f88d580	1.0690155
158	0x3f881948	1.0632715
159	0x3f88426e	1.0645273
160	0x3f82d7c1	1.0222093
161	0x3f802898	1.0012388
162	0x3f6db3c5	0.9285243
163	0x3f894bdc	1.0726275
164	0x3f838ff6	1.0278308
165	0x3f88deaa	1.0692952
166	0x3f9ae147	1.2099999
167	0x3f8ddafd	1.1082455
168	0x3f839940	1.0281143
169	0x3f7dec2f	0.9918851
170	0x3f80d159	1.0063888
171	0x3f88f7ff	1.0700682
172	0x3f883942	1.0642474
173	0x3f925d31	1.143469
174	0x3f83de3e	1.0302198
175	0x3f96a0c9	1.1767818
176	0x3f8b21bc	1.086967
177	0x3f803661	1.0016595
178	0x3f8029d8	1.001277
179	0x3f90355c	1.1266284
180	0x3f959984	1.1687474
181	0x3f8db38e	1.1070421
182	0x3f8733cc	1.0562682
183	0x3f9c69b3	1.2219757
184	0x3f872c81	1.0560457
185	0x3f868116	1.0508144
186	0x3f85c856	1.0451763
187	0x3f85f9af	1.0466822
188	0x3f897651	1.0739232
189	0x3f8e25f4	1.1105332
190	0x3f79165a	0.9729973
191	0x3f870e7e	1.0551298
192	0x3f8be172	1.0928175
193	0x3f85b5ee	1.0446146
194	0x3f7fa360	0.99858665
195	0x3f87dce9	1.0614291
196	0x3f906db0	1.1283474
197	0x3f9b6b25	1.2142073
198	0x3f8181b7	1.0117711
199	0x3f8c2eb3	1.0951751
200	0x3f888f8b	1.0668806
201	0x3f7e2dd2	0.99288666
202	0x3f829a3c	1.0203319
203	0x3f8fbc7c	1.1229396
204	0x3f98b47f	1.1930083
205	0x3f85369b	1.0407289
206	0x3f8f5c1c	1.1199985
207	0x3f8444ec	1.0333533
208	0x3f8a6b0b	1.0813917
209	0x3f8292ef	1.020109
210	0x3f5b275a	0.8560692
211	0x3f867594	1.0504632
212	0x3f808e5a	1.0043442
213	0x3f845e4c	1.0341277
214	0x3f8f9b4b	1.1219267
215	0x3f8c5301	1.0962831
216	0x3f8b53b3	1.0884918
217	0x3f8f687b	1.120376
218	0x3f869a0a	1.0515759
219	0x3f82befc	1.0214534
220	0x3f9370b5	1.151877
221	0x3f8ac8f2	1.0842574
222	0x3f843516	1.03287
223	0x3f90d321	1.1314431
224	0x3f80b962	1.0056574
225	0x3f85d491	1.0455495
226	0x3f7b532b	0.9817378
227	0x3f7bead1	0.98405176
228	0x3f7efcfd	0.9960478
229	0x3f93f7be	1.155998
230	0x3f851ff3	1.0400375
231	0x3f82438e	1.0176866
232	0x3f89014f	1.0703524
233	0x3f8d66a4	1.1046948
234	0x3f857514	1.0426354
235	0x3f815e40	1.0106888
236	0x3f88db05	1.069184
237	0x3f94d3a9	1.1627094
238	0x3f80c37b	1.0059656
239	0x3f78dd0b	0.97212285
240	0x3f8067fa	1.0031731
241	0x3f78ddcd	0.9721344
242	0x3f78dcc4	0.9721186
243	0x3f7aac58	0.97919226
244	0x3f82c279	1.0215598
245	0x3f82b55e	1.0211599
246	0x3f93d553	1.1549476
247	0x3f7e0717	0.9922957
248	0x3f8d6987	1.1047829
249	0x3f7ef40d	0.9959114
250	0x3f88d835	1.0690981
251	0x3f8734e4	1.0563016
252	0x3f8fb853	1.1228126
253	0x3f8b8bac	1.0902
254	0x3f72288d	0.94593126
255	0x3f7bb893	0.9832851

batch_norm1.bias f4 [256]
0	0xbe9bb965	-0.30414882
1	0xbe70affb	-0.23504631
2	0xbd0fbd63	-0.035092723
3	0xbe45cb71	-0.19315888
4	0xbe84cd87	-0.25938055
5	0xbe1a0cd1	-0.15043952
6	0xbdccff31	-0.100096114
7	0xbe03f3e1	-0.12886001
8	0xbd064a68	-0.032785803
9	0x3d674dd8	0.056470722
10	0xbe2c9aaf	-0.16855882
11	0xbea84f70	-0.32873106
12	0xbe5b4300	-0.21412277
13	0xbd095e40	-0.03353715
14	0x3d13ef2c	0.036116764
15	0x3d855797	0.06510847
16	0xbc6733b4	-0.014111448
17	0xbe621945	-0.22079952
18	0xbd9573ef	-0.07297503
19	0x3dc338fb	0.095323525
20	0xbdd6b1c0	-0.10483122
21	0xbd03b05c	-0.03215061
22	0xbd054f51	-0.032546345
23	0xbe0a08ae	-0.13479874
24	0xbe6d4129	-0.23169388
25	0xbc5ab550	-0.013348892
26	0xbd61f763	-0.055167567
27	0xbe12807f	-0.1430683
28	0xbe603ff4	-0.21899396
29	0xbd50538c	-0.050860927
30	0x3dd23013	0.10263076
31	0xbdfadf71	-0.12249649
32	0xbd7f6c97	-0.06235942
33	0xbcecfd06	-0.028929245
34	0xbbe2745e	-0.0069108447
35	0xbc7d6789	-0.015466579
36	0xbe823383	-0.25429925
37	0xbd47a26b	-0.04873888
38	0xbe6f7f92	-0.23388508
39	0xbd2c2bad	-0.04203384
40	0xbe226504	-0.15858847
41	0x3dc8bf9a	0.0980217
42	0xbe1c41cc	-0.15259475
43	0xbe7ebc77	-0.24876581
44	0x3e00b438	0.12568748
45	0xbda4659a	-0.080271915
46	0xbd7540af	-0.05987614
47	0xbe9b9882	-0.30389792
48	0xbd9a639f	-0.075385325
49	0x3b5e2ffb	0.003390311
50	0xbe3d70f4	-0.1850012
51	0x3d8ff25c	0.07028648
52	0xbe3887aa	-0.18020502
53	0xbd618f98	-0.055068582
54	0xbe274fe9	-0.16339077
55	0xbe8ebefc	-0.27880085
56	0xbe24e708	-0.16103756
57	0xbe870eb8	-0.26378417
58	0x3d8af336	0.0678467
59	0xbe7be92c	-0.24600667
60	0x3d55b1dc	0.052171573
61	0xbe44abcd	-0.19206162
62	0xbe1254ce	-0.14290163
63	0xbcb78db2	-0.022406433
64	0xbe41c61e	-0.18923232
65	0x3d2131aa	0.039354004
66	0xbd569b92	-0.052394457
67	0xbbbc0902	-0.0057383785
68	0xbe931f77	-0.28734943
69	0xbd54f6e1	-0.051993255
70	0x3d14b973	0.03630967
71	0xbe9529c0	-0.29133415
72	0xbea2eb1e	-0.31820005
73	0x3cf4f27a	0.029900778
74	0xbe837d55	-0.25681558
75	0xbec2d81a	-0.38055497
76	0xbe9009ed	-0.28132573
77	0xbd2daf74	-0.042403653
78	0xbd82f5f5	-0.06394569
79	0xbba02939	-0.0048877266
80	0xbd8b9a6e	-0.068165645
81	0xbe551006	-0.20806894
82	0xbdd83efb	-0.105588876
83	0x3d1fbf69	0.039000902
84	0x3d7578e4	0.059929743
85	0x3ce4e841	0.027942779
86	0xbcc62549	-0.0241877
87	0x3dba169a	0.09086342
88	0xbe47aa35	-0.19498523
89	0xbe17f111	-0.14838053
90	0xbd8469ba	-0.06465478
91	0x3b4443ea	0.0029947706
92	0x3d99244b	0.074776255
93	0xbe4f10e4	-0.20221287
94	0x3c87a4f4	0.016558148
95	0x3e47d8e5	0.19516332
96	0x3d99dd45	0.07512907
97	0x3d9400af	0.07226693
98	0xbe4cf543	-0.20015435
99	0xbd9dce8f	-0.077054136
100	0xbd169f59	-0.03677306
101	0x3c01c5f1	0.007920728
102	0xbe025d46	-0.12730893
103	0x3c9bb69a	0.01900797
104	0xbd972173	-0.07379427
105	0xbd55e449	-0.052219663
106	0xbd09e334	-0.033663943
107	0x3e2119a7	0.15732442
108	0xbe9932ae	-0.29921478
109	0xbcfa474e	-0.030551579
110	0xbe3ca9d1	-0.18424155
111	0xbe79b485	-0.24385269
112	0x3e6ae672	0.2293947
113	0x3d6ac16c	0.057313368
114	0xbca260c4	-0.019821532
115	0x3e0f3a0c	0.13986987
116	0xbe20fbde	-0.1572108
117	0xbcf152e7	-0.029458476
118	0xbe84114c	-0.25794446
119	0xbdf413e1	-0.11917854
120	0xbeab9029	-0.33508423
121	0xbeb5db0f	-0.3551869
122	0xbd849f1a	-0.06475659
123	0xbda496ba	-0.08036561
124	0xbe00ebbf	-0.1258993
125	0x3e0ea5e7	0.13930474
126	0xbcda1cb7	-0.02662502
127	0xbea25f49	-0.31713322
128	0x3ca50045	0.02014173
129	0xbdc2b644	-0.09507421
130	0xbe802360	-0.2502699
131	0xbe0ea394	-0.13929588
132	0x3d584856	0.05280336
133	0xbe167382	-0.146925
134	0xbd2b2d41	-0.041791204
135	0xbb506dc8	-0.0031803716
136	0x3d781b12	0.06057269
137	0xbe6f0fca	-0.23345867
138	0x3ca098a3	0.019604033
139	0x3df7b625	0.12095288
140	0xbbb26c0a	-0.005445008
141	0x3b2787c3	0.0025563098
142	0xbdc8da6f	-0.09807288
143	0xbe14681e	-0.14492843
144	0xbcf1788d	-0.029476428
145	0xbafe5cf8	-0.0019406369
146	0x3e232463	0.15931849
147	0xbdd1dfa7	-0.102477364
148	0xbe092418	-0.13392675
149	0x3db1e4de	0.08686231
150	0xbe8495ba	-0.25895482
151	0xbe0fb76b	-0.14034812
152	0xbe5619ea	-0.20908323
153	0x3cfdc6b4	0.030978538
154	0xbd17433c	-0.036929354
155	0xbc9ca767	-0.019122792
156	0x3d22eeb1	0.039778415
157	0xbe2dcd7e	-0.1697292
158	0xbe4df445	-0.20112713
159	0x3c008b95	0.007845779
160	0x3de3929f	0.1111195
161	0xbdf50373	-0.119635485
162	0x3df3246e	0.11872183
163	0xbe69120e	-0.22760794
164	0xbe250c9f	-0.16118096
165	0xbe24d316	-0.16096148
166	0xbcf61776	-0.030040484
167	0xbdab014d	-0.083498575
168	0xbe49ad8d	-0.1969511
169	0xbe704de9	-0.2346722
170	0xbe8eec48	-0.27914643
171	0xbe098ba1	-0.1343217
172	0xb9878cf5	-0.00025854228
173	0xbd17108f	-0.036881026
174	0x3d3f5f55	0.046721775
175	0x3e109080	0.14117622
176	0xbe9035c5	-0.28166023
177	0xbe806d02	-0.25083166
178	0xbe23599f	-0.15952156
179	0x3cdc5fed	0.02690121
180	0xbd48bcde	-0.049008243
181	0xbdb0933a	-0.08621831
182	0xbdcd284c	-0.10017452
183	0xbb85d3ee	-0.004084102
184	0xbe88b5fd	-0.26701346
185	0x3ca1a082	0.019729856
186	0xbd9e552b	-0.07731088
187	0xbe04697c	-0.12930864
188	0xbde61666	-0.11234741
189	0xbd4da527	-0.05020633
190	0xbdab555f	-0.083658926
191	0xbdd0f702	-0.10203363
192	0xba0160d6	-0.0004935389
193	0xbda0f9b5	-0.07860128
194	0xbe2f17c3	-0.17098908
195	0xbe6e08a6	-0.23245487
196	0x3d3ccc52	0.046093293
197	0x3d933f12	0.07189764
198	0x3c6eae0e	0.014567865
199	0x3d322204	0.04348947
200	0xbe1094c9	-0.14119257
201	0xbe16d138	-0.14728248
202	0xbe417d30	-0.18895411
203	0x3c7c8ce6	0.015414452
204	0x3d8a6ea9	0.06759388
205	0x3e1585af	0.14601777
206	0xbdfccc85	-0.123436965
207	0xbd673b93	-0.0564533
208	0x3e1c63a6	0.15272388
209	0xbe01cb59	-0.12675227
210	0xbe0dd004	-0.13848883
211	0xbd6e7fec	-0.058227465
212	0xbdbff3b9	-0.09372658
213	0xbe3d2ee4	-0.18474919
214	0xbc7b184c	-0.015325617
215	0xbe87fb18	-0.26558757
216	0xbd852fb0	-0.06503236
217	0xbc57b423	-0.0131655065
218	0xbe84c92e	-0.25934738
219	0xbdaebb03	-0.085317634
220	0xbdb93fe0	-0.09045386
221	0x3dccb8fc	0.099962205
222	0xbdff25b1	-0.12458361
223	0x3c03f49c	0.008053925
224	0x3dc60780	0.09669399
225	0xbe038a90	-0.12845826
226	0xbe80eda9	-0.2518132
227	0xbe520edb	-0.2051348
228	0xbd309e87	-0.043119933
229	0xbd25ed25	-0.04050936
230	0xbce9b323	-0.028527802
231	0xbd6239bb	-0.055230837
232	0xbe3d3e8f	-0.18480895
233	0xbe428b27	-0.18998395
234	0xbda6d819	-0.08146686
235	0xbe113b19	-0.141827
236	0xbd0289da	-0.031869747
237	0x3c22ab67	0.009928561
238	0xbe927c36	-0.2861039
239	0xbe289d1b	-0.16466181
240	0xbe2c32c6	-0.16816244
241	0xbdb17982	-0.08665754
242	0x3bfe785e	0.0077658137
243	0xbe734a82	-0.23758891
244	0xbdf7956b	-0.12089046
245	0xbdb5fdf3	-0.088863276
246	0x3cae852e	0.02130374
247	0x3d940be2	0.07228829
248	0xbdb10b82	-0.08644773
249	0xbe0562c5	-0.13025959
250	0xbd63d1fb	-0.055620175
251	0xbd5bc348	-0.05365303
252	0xbd056b11	-0.03257281
253	0xbe408df1	-0.18804146
254	0xbe2ebfd9	-0.17065372
255	0xbe845669	-0.25847176

batch_norm1.running_mean f4 [256]
0	0xbbeb356c	-0.0071779992
1	0xbc59189e	-0.013250498
2	0x3df2ecd0	0.11861575
3	0x3dc44ce8	0.09584981
4	0xbd659baf	-0.056056675
5	0x3e96f15b	0.29481015
6	0x3e08d3c4	0.13362032
7	0x3e38b272	0.18036821
8	0x3e8986d9	0.26860693
9	0x3ee2d215	0.44300905
10	0xbd17d364	-0.037066832
11	0x3e09bab7	0.13450132
12	0x3e1a1f37	0.1505097
13	0x3e8ca442	0.2746907
14	0x3e4092fe	0.18806073
15	0x3e9bd87a	0.30438596
16	0x3ea8c324	0.3296138
17	0x3d158e24	0.03651251
18	0x3e310dec	0.17290467
19	0x3eb84257	0.35988113
20	0x3ea49be5	0.32150188
21	0x3ebbe10c	0.36695135
22	0x3c8f93dc	0.01752656
23	0x3e30d35c	0.17268127
24	0x3e2face0	0.1715579
25	0x3e5326c6	0.2062026
26	0x3e3e57da	0.185882
27	0x3eb4278a	0.35186416
28	0x3e11287c	0.141756
29	0x3e975086	0.29553622
30	0x3e962650	0.29326105
31	0x3e2e255f	0.17006443
32	0x3eb5dbac	0.3551916
33	0x3e69e219	0.22840156
34	0x3ea1be94	0.31590712
35	0x3ebd9675	0.37028852
36	0x3e7a1725	0.24422891
37	0x3e99d2b0	0.30043554
38	0x3e87759e	0.26456922
39	0x3eaf2698	0.34209132
40	0x3d5713d9	0.052509163
41	0x3e751cd8	0.23936784
42	0x3e6a12aa	0.22858682
43	0x3dd0ef8a	0.102019385
44	0x3eafa100	0.3430252
45	0x3df6d945	0.120531596
46	0x3eaf32f2	0.34218556
47	0xbd401e49	-0.046903882
48	0x3e36a7aa	0.17837396
49	0x3edb5456	0.4283778
50	0x3e98d4c3	0.29849824
51	0x3eb17c91	0.3466535
52	0x3e695784	0.22787291
53	0x3e05963c	0.13045591
54	0x3e3319d1	0.17490317
55	0x3de9a859	0.11409063
56	0x3d6e2876	0.058144055
57	0x3e149b42	0.14512351
58	0x3ea0c8e9	0.31403282
59	0x3e4b3132	0.19842985
60	0x3e85a2aa	0.26100665
61	0x3de9b5ff	0.11411666
62	0x3dbf905b	0.093537055
63	0x3e4119a2	0.18857434
64	0x3e1a9704	0.1509667
65	0x3eb283db	0.34866223
66	0x3e9761ce	0.29566807
67	0x3e4ed663	0.2019897
68	0x3da514b6	0.08060591
69	0x3e88e6a6	0.2673847
70	0x3e3eb88d	0.18625088
71	0x3e3a7768	0.18209612
72	0x3d50aa48	0.050943643
73	0x3e4504ea	0.19240156
74	0xbda70ab0	-0.08156335
75	0xbda07ee6	-0.07836704
76	0x3a1c1df0	0.0005955389
77	0x3e7aaf32	0.24480894
78	0x3e3a8626	0.18215236
79	0x3e82a33a	0.25515157
80	0x3e7f5b56	0.24937186
81	0x3dee7c2e	0.11644779
82	0x3ea3b73e	0.3197574
83	0x3e7e1639	0.24813165
84	0x3e80ed7c	0.25181186
85	0x3ec89cd9	0.39182165
86	0x3ea2b463	0.3177825
87	0x3ea600ba	0.3242243
88	0x3d9228f0	0.071367145
89	0x3db2b532	0.087259665
90	0x3ebe524e	0.37172168
91	0xbc2d207d	-0.010566828
92	0x3ee97d8f	0.45603606
93	0x3e4a23c4	0.19740206
94	0x3ec01822	0.37518412
95	0x3ec199f0	0.37812757
96	0x3ee13833	0.4398819
97	0x3eca1de5	0.39475933
98	0x3de181d7	0.11011093
99	0x3e833299	0.2562454
100	0x3e871c8f	0.26388976
101	0x3e13b348	0.14423859
102	0x3e58181c	0.21102947
103	0x3f036773	0.51329726
104	0x3e9d8482	0.30765158
105	0x3e928702	0.28618628
106	0x3ebc6954	0.3679911
107	0x3eacb25a	0.3372982
108	0x3e427c14	0.18992645
109	0x3e0be16e	0.13660213
110	0x3e960805	0.29302993
111	0x3a81d9d0	0.0009906832
112	0x3e963447	0.2933676
113	0x3e997ce5	0.299781
114	0x3e604c9a	0.21904221
115	0x3ea6c5e6	0.3257286
116	0x3d8b2cf1	0.06795681
117	0x3e0f7354	0.14008838
118	0xbc168120	-0.009186059
119	0x3e219fe2	0.15783647
120	0x3e4b9664	0.19881588
121	0x3c891a31	0.016736122
122	0x3d9e0982	0.07716657
123	0x3e6afc83	0.22947888
124	0x3e0228c6	0.12710866
125	0x3ea97422	0.33096415
126	0x3ee3125d	0.44349948
127	0x3e4cc96b	0.1999871
128	0x3e973b3c	0.2953738
129	0x3e19d43d	0.15022369
130	0xbd91f5a6	-0.07126932
131	0x3e085455	0.1331342
132	0x3eb689a8	0.35651898
133	0x3e93f151	0.28895047
134	0x3ece9562	0.40348345
135	0x3e6b0366	0.22950515
136	0x3e89e583	0.26932916
137	0x3dd37108	0.103242934
138	0x3eb9c178	0.36280417
139	0x3f01f63a	0.50766337
140	0x3e8b071f	0.2715387
141	0x3eebaad7	0.46028778
142	0x3e806a81	0.25081256
143	0x3e3c26e6	0.18374214
144	0x3ed3b088	0.4134562
145	0x3e8d95da	0.2765339
146	0x3ed590de	0.41712087
147	0x3eb89049	0.3604758
148	0x3df8ca71	0.12147988
149	0x3ea71a64	0.32637322
150	0x3e100f30	0.14068294
151	0x3d07efb4	0.033187583
152	0x3e185eae	0.14879867
153	0x3eb95071	0.36194184
154	0x3ec00674	0.37504923
155	0x3e6c5ca3	0.23082213
156	0x3eee3c9e	0.46530622
157	0x3e4d2076	0.20031914
158	0x3d9632bc	0.073338956
159	0x3e45b4c8	0.19307244
160	0x3e8d7006	0.2762453
161	0x3e2d1b01	0.16904832
162	0x3e0d0ded	0.13774844
163	0x3e9539bb	0.29145607
164	0x3e4850d0	0.19562078
165	0x3e88562e	0.2662825
166	0x3f1e5785	0.61852294
167	0x3e907a1b	0.2821816
168	0x3e2b3621	0.16719867
169	0x3b325800	0.0027213097
170	0x3ca5eedd	0.0202555
171	0x3df70cfe	0.12063025
172	0x3e9fa407	0.3117983
173	0x3d2e3956	0.04253515
174	0x3e52b7b0	0.20577884
175	0x3efcc437	0.4936845
176	0xbe081e32	-0.13292769
177	0x3e7ace07	0.24492656
178	0x3e40aba2	0.18815473
179	0x3ebe2992	0.3714109
180	0x3ec165cc	0.37772977
181	0x3e18b34c	0.14912146
182	0x3b00220a	0.001955154
183	0x3e2b27c8	0.16714394
184	0x3dfa7650	0.122295976
185	0x3e48b182	0.19598964
186	0x3e83b118	0.2572105
187	0x3e71efa4	0.23626572
188	0x3e1f57f9	0.15560903
189	0x3e439114	0.19098312
190	0x3e8f524f	0.27992484
191	0x3e93dca6	0.2887928
192	0x3ea3a6cd	0.31963196
193	0x3e5d6775	0.21621497
194	0x3e281614	0.16414672
195	0xbd8a3a5c	-0.067494124
196	0x3e820ef7	0.25402042
197	0x3f0a992a	0.5413996
198	0x3e849a1a	0.2589882
199	0x3e437cab	0.19090526
200	0x3e998b47	0.29989073
201	0x3e2b48d4	0.16727
202	0x3e4942f2	0.19654444
203	0x3ebb3b26	0.36568564
204	0x3ecdff42	0.4023381
205	0x3e9f023a	0.31056386
206	0x3c50f103	0.012752774
207	0x3defa142	0.11700679
208	0x3ead0d24	0.33799088
209	0x3dc99f19	0.098447986
210	0x3d834fdb	0.064117156
211	0x3e3c533e	0.1839113
212	0x3d89ef64	0.06735113
213	0x3dbcda1e	0.0922129
214	0x3ed8b2c7	0.42323896
215	0x3dab1fab	0.083556496
216	0x3ea7a587	0.32743475
217	0x3e9d108e	0.30676693
218	0x3e565c66	0.20933685
219	0x3e4bd5bc	0.19905752
220	0x3e9e76c8	0.30949998
221	0x3eee10de	0.46497244
222	0x3e575dab	0.21031825
223	0x3e9849d5	0.2974383
224	0x3ea3e631	0.3201156
225	0x3e76cc59	0.2410139
226	0x3d8042ec	0.06262764
227	0x3e1edffd	0.15515132
228	0x3e808d02	0.2510758
229	0x3e90562a	0.28190738
230	0x3e9e74fe	0.30948633
231	0x3e88799a	0.26655275
232	0x3e707fdf	0.23486279
233	0x3e92e338	0.2868898
234	0x3c93dd5e	0.018049892
235	0x3e7d00a2	0.24707273
236	0x3ead6fed	0.33874455
237	0x3e63e912	0.22256878
238	0x3e09c7d2	0.13455132
239	0x3b2f6e1a	0.0026768507
240	0x3e19fdae	0.15038177
241	0x3e82e155	0.2556254
242	0x3d64f645	0.055898923
243	0x3db9c19f	0.090701334
244	0x3e0d1cf4	0.13780576
245	0x3e491624	0.19637352
246	0x3ec54db6	0.3853585
247	0x3e633499	0.22188033
248	0x3e099d41	0.13438894
249	0x3e51fc01	0.20506288
250	0x3e30431d	0.17213102
251	0x3e32def2	0.1746786
252	0x3eb83969	0.359813
253	0x3e1b08d1	0.15140082
254	0x3ca96064	0.020675845
255	0x3e605fc6	0.21911535

batch_norm1.running_var f4 [256]
0	0x3fd68ddd	1.6762043
1	0x40377e88	2.8670979
2	0x4004926b	2.0714366
3	0x3faec15f	1.3652762
4	0x3fa77976	1.3083942
5	0x3fa9db92	1.3270133
6	0x3fb4b296	1.4117
7	0x3ffd3c93	1.9784111
8	0x3ff3d46a	1.9049199
9	0x40010808	2.0161152
10	0x3fe16001	1.7607423
11	0x3faaa5c2	1.3331835
12	0x3fad9654	1.3561502
13	0x4008bbc4	2.1364603
14	0x3fe3e6ff	1.780487
15	0x3fc768f2	1.5578902
16	0x3fa76be1	1.3079797
17	0x3fdcb3c9	1.7242366
18	0x3fb462e1	1.4092675
19	0x3faa8479	1.3321677
20	0x3fba6f5a	1.4565232
21	0x3ffee8c1	1.9914781
22	0x3faf4109	1.3691722
23	0x3fce7ee5	1.6132475
24	0x3fb15e9d	1.3856999
25	0x3fa3041a	1.2735627
26	0x3ffccdb2	1.9750273
27	0x4010078f	2.2504613
28	0x400a8f21	2.164986
29	0x3ff9496f	1.9475535
30	0x3ff26005	1.8935553
31	0x3fc436de	1.5329244
32	0x401b463b	2.4261615
33	0x3fd4c373	1.6622146
34	0x3fbdd842	1.4831622
35	0x3ff41928	1.9070177
36	0x3ff459d8	1.9089918
37	0x3fcbf8ae	1.5935266
38	0x3fffec9a	1.999408
39	0x3fd25ddb	1.6434892
40	0x3fc41b4b	1.5320829
41	0x40002513	2.0022628
42	0x3fc75b8d	1.5574814
43	0x400c9674	2.196683
44	0x4001d480	2.028595
45	0x400cb8e6	2.1987853
46	0x3fcdc806	1.6076667
47	0x3f92286a	1.1418583
48	0x4003e3e1	2.0607836
49	0x400a6e75	2.1629918
50	0x4014dffc	2.326171
51	0x401b8f93	2.430638
52	0x3ff3127a	1.8990014
53	0x3ff362ab	1.9014486
54	0x3f8b3a3c	1.0877147
55	0x3fc3759d	1.5270268
56	0x3ffba680	1.9660187
57	0x404ac995	3.1685536
58	0x3fccfda7	1.6014909
59	0x4018b6ff	2.3861692
60	0x3fd27065	1.644055
61	0x3fec6e48	1.8471155
62	0x3fe64927	1.7991074
63	0x3feadd02	1.8348696
64	0x3fd7c2d1	1.6856328
65	0x3fca79f1	1.5818464
66	0x3fd5b85a	1.6696885
67	0x400508c2	2.0786595
68	0x3febfe0c	1.8436904
69	0x3fdca3fd	1.7237545
70	0x3fdea5f3	1.7394394
71	0x3fead844	1.8347249
72	0x3ff1b23a	1.8882515
73	0x3fffa12c	1.9971061
74	0x3fb4a513	1.4112877
75	0x3f96741a	1.1754181
76	0x3febecee	1.843168
77	0x3fbba7f4	1.466063
78	0x3fb632c4	1.4234242
79	0x40134e9f	2.3016737
80	0x400bec5b	2.186301
81	0x401354c1	2.302048
82	0x3fd8366c	1.6891608
83	0x4002db28	2.0446262
84	0x3fb5fd79	1.4217979
85	0x40071ae0	2.1110153
86	0x3fd524ce	1.6651857
87	0x3ffa0fa3	1.9536022
88	0x40151b49	2.3297904
89	0x3ffcdfef	1.9755839
90	0x401b5403	2.4270027
91	0x3f858581	1.0431367
92	0x4013798a	2.3042932
93	0x3fa55dd8	1.2919264
94	0x3fdd3414	1.7281518
95	0x4021a0c0	2.5254364
96	0x40039c06	2.056398
97	0x3fff5b8f	1.9949816
98	0x3fad73ca	1.3550961
99	0x3fe54603	1.7911991
100	0x3ff264af	1.8936976
101	0x3fc33634	1.5250916
102	0x3fd6eb3f	1.6790541
103	0x3fcb8934	1.5901246
104	0x3fceaeee	1.6147134
105	0x3fb9726b	1.4488043
106	0x3fe1d1dc	1.7642169
107	0x3ff8140e	1.938112
108	0x4006acf3	2.104306
109	0x401a80e7	2.4141176
110	0x40030b32	2.0475583
111	0x3fb867cf	1.440668
112	0x3ffe30ab	1.9858602
113	0x3fe446bf	1.783409
114	0x3fdf460f	1.7443255
115	0x3fea7a30	1.8318539
116	0x3fda51a8	1.705617
117	0x3fd248ac	1.6428428
118	0x401af952	2.4214673
119	0x3ff34983	1.9006809
120	0x3fc2c87c	1.5217433
121	0x3fce2580	1.6105194
122	0x3fe5c83f	1.7951735
123	0x3fe3f85c	1.7810168
124	0x3fb29176	1.3950641
125	0x3fd04619	1.6271392
126	0x3fe5a142	1.7939837
127	0x3fcef4aa	1.6168416
128	0x3fc078e6	1.5036895
129	0x3ffe5a5b	1.9871324
130	0x3fd53a61	1.6658441
131	0x3fb54a7b	1.4163355
132	0x401ee55c	2.482749
133	0x3fdfc841	1.7482988
134	0x3fc5bc2b	1.5448049
135	0x3ff490d1	1.9106694
136	0x400a6055	2.1621296
137	0x3f8f2107	1.1181954
138	0x3ffd9846	1.9812095
139	0x400016e8	2.001398
140	0x3ff9b11c	1.9507174
141	0x3fcbc93f	1.592079
142	0x401a5263	2.4112785
143	0x3fdd850c	1.7306228
144	0x400d3e2b	2.2069194
145	0x3ff7537c	1.9322352
146	0x400105fe	2.0159907
147	0x3face938	1.3508673
148	0x4016a268	2.3536625
149	0x3ff548ff	1.9162902
150	0x3fbb821c	1.4649081
151	0x3fdb4581	1.7130586
152	0x3ff73b8a	1.9315045
153	0x3fc6c504	1.5528874
154	0x3fe30a5c	1.7737536
155	0x3fbab1f1	1.4585553
156	0x3fdeba9c	1.7400699
157	0x3fcd1ad2	1.602381
158	0x40236f52	2.5536695
159	0x3ffac461	1.959118
160	0x3fb20118	1.3906584
161	0x4015ae0f	2.3387487
162	0x3fc3c694	1.5294976
163	0x3fcbbee0	1.5917625
164	0x3ffb7cdc	1.9647479
165	0x3fece1dc	1.8506427
166	0x402a7b80	2.6637878
167	0x3fad4b30	1.353857
168	0x40004ac2	2.0045629
169	0x3f8aa814	1.0832543
170	0x40245442	2.5676427
171	0x3fc7c506	1.5607002
172	0x3fdfd129	1.7485706
173	0x3fdffff0	1.7499981
174	0x3fa84a52	1.3147681
175	0x4023bb08	2.5582905
176	0x401d6e06	2.4598403
177	0x3fea6de4	1.8314786
178	0x3ff9f9ea	1.9529393
179	0x4023c9aa	2.5591836
180	0x402ee1f0	2.7325401
181	0x3fc2b73a	1.5212166
182	0x3f9b7e8c	1.2147994
183	0x4003c8f5	2.0591404
184	0x4002039c	2.0314703
185	0x3fd072a9	1.6284992
186	0x3ff3802e	1.9023492
187	0x3fdb06ff	1.711151
188	0x4000774a	2.0072808
189	0x3fd47960	1.6599541
190	0x3fb4d085	1.4126135
191	0x3ff728a9	1.9309283
192	0x3fd28ba0	1.644886
193	0x40375655	2.8646443
194	0x40108cc6	2.2585921
195	0x3fb46c43	1.4095539
196	0x3ff15d96	1.8856685
197	0x40058edc	2.0868444
198	0x3f930f9e	1.1489141
199	0x3fd77ff5	1.6835924
200	0x3fbc5411	1.4713155
201	0x3fe35dca	1.7762997
202	0x401c9e73	2.447171
203	0x40009545	2.0091107
204	0x3fb9d801	1.4519044
205	0x3ffb4e6a	1.9633305
206	0x401770f6	2.3662696
207	0x40198c6b	2.3991954
208	0x4003806b	2.054713
209	0x3fd4a455	1.661265
210	0x3fb79085	1.4340979
211	0x3fbe9898	1.4890318
212	0x3fb93e9b	1.4472231
213	0x3fa1dc6f	1.2645396
214	0x3fcb92fe	1.5904233
215	0x3fa51d68	1.2899599
216	0x3ffc3dd8	1.9706373
217	0x3fb4c433	1.4122375
218	0x40245982	2.5679631
219	0x3ff2eb3a	1.8978035
220	0x3fa840a8	1.3144732
221	0x3fde26c1	1.7355577
222	0x3fc1c12e	1.5137079
223	0x40123e4e	2.2850528
224	0x3fea909c	1.8325381
225	0x4002914e	2.0401187
226	0x3ff34f1b	1.9008516
227	0x400f1466	2.23562
228	0x4007ca9a	2.1217408
229	0x400c285f	2.189964
230	0x400ab9e4	2.1675959
231	0x3fce6dbb	1.6127237
232	0x3fdc2cb4	1.7201142
233	0x3fe15411	1.760378
234	0x3fbde4ca	1.4835446
235	0x400cf218	2.2022762
236	0x3feeea50	1.8665257
237	0x3fa9ffb2	1.3281157
238	0x3fc2f3c3	1.523064
239	0x3fcf8021	1.6210977
240	0x3fecb488	1.8492594
241	0x3fca811b	1.582065
242	0x3f604079	0.8759838
243	0x3fc6a86f	1.5520152
244	0x3fed82ea	1.8555577
245	0x3fe5d6af	1.7956141
246	0x4005c6ba	2.0902543
247	0x3fdb7f5c	1.7148242
248	0x3fd10b7f	1.6331633
249	0x3fbef8c5	1.4919668
250	0x3fd56b21	1.6673318
251	0x3fb434c8	1.4078608
252	0x4011ac04	2.276124
253	0x400e8f12	2.2274823
254	0x3ffb6f89	1.9643413
255	0x3fd55202	1.6665652

fc2.weight f4 [128, 256]
0	0x3d933e2e	0.07189594
1	0x3d74b80f	0.059745844
2	0xbdc2b1e3	-0.095065854
3	0x3c836352	0.01603857
4	0x3dc57999	0.096423335
5	0xbd038146	-0.032105707
6	0xbc1ffec2	-0.009765329
7	0xbd41fd50	-0.04736072
8	0x3dcaf0ba	0.09909196
9	0xbcdb9604	-0.026804931
10	0xbd3e873c	-0.04651569
11	0x3dfecd70	0.12441528
12	0xbb6d368f	-0.003619585
13	0xbbc61816	-0.0060453517
14	0xbe6ed953	-0.2332509
15	0xbd2497d4	-0.040183857
16	0xbdaa8002	-0.08325197
17	0xbb6238f2	-0.0034518805
18	0x3d7860c1	0.060639147
19	0xbdc44574	-0.0958356
20	0x3d97ffd1	0.0742184
21	0xbdcf1034	-0.101105124
22	0xbd4089d8	-0.047006458
23	0xbe2209ff	-0.15824126
24	0xbc284f52	-0.010272818
25	0xbd21557f	-0.039388176
26	0xbbd62c51	-0.0065360446
27	0xbcd40d2f	-0.025885193
28	0x3db92290	0.090397954
29	0xbda8a320	-0.082342386
30	0xbdbcc848	-0.09217888
31	0x3da43deb	0.080196224
32	0xbcbaf574	-0.02282212
33	0xbe37955f	-0.17928074
34	0x3ccf7998	0.025326535
35	0xbb7d0726	-0.0038608997
36	0x3c387fbd	0.011260924
37	0xbd92c6f6	-0.07166855
38	0xbd916668	-0.070996106
39	0x3c2598cc	0.01010723
40	0xbdec769e	-0.11546062
41	0xbe0efb52	-0.13963059
42	0x3beb322e	0.0071776127
43	0xbd8b7f04	-0.06811336
44	0xbd9b7e1b	-0.07592412
45	0xbde60900	-0.11232185
46	0x3dc247d6	0.09486358
47	0x3c45da01	0.012075902
48	0xbd0c9cae	-0.03432911
49	0x3d16865e	0.036749236
50	0x3ce422d3	0.027848637
51	0xbdf20e36	-0.11819117
52	0x3c9e09f6	0.01929186
53	0xbd4b8978	-0.049691647
54	0x3d93ea7c	0.07222459
55	0x3c0406d8	0.008058272
56	0xbe87d94d	-0.26532975
57	0xbe0cbd34	-0.1374405
58	0x3d3072cf	0.04307824
59	0xbcdf3a19	-0.027249383
60	0xbd7313dc	-0.05934511
61	0xbe732eb3	-0.23748283
62	0xbd288b25	-0.041148324
63	0xbe0f199b	-0.13974611
64	0x3d1e4dac	0.038648292
65	0xbdfc5be7	-0.123222165
66	0x3d54a8a0	0.051918626
67	0xbde5b44b	-0.11216029
68	0x3d31bf5d	0.04339539
69	0xbe40397b	-0.18771927
70	0x3d5df3f8	0.054187745
71	0x3d966ea7	0.07345324
72	0x3c6a6b8a	0.014307866
73	0xbda371d1	-0.07980693
74	0xb80f26b7	-3.4129913e-05
75	0x3cbf4f4a	0.023353238
76	0xbd7942b5	-0.060854632
77	0x3d8d0d77	0.06887334
78	0xbdcb741b	-0.09934255
79	0xbd9d005e	-0.07666086
80	0xbd1bb699	-0.038015936
81	0x3c976490	0.01848057
82	0x3d9e2a7b	0.07722946
83	0xbd2d2436	-0.04227086
84	0x3df2e0dd	0.118592955
85	0xbcd2df0e	-0.025741126
86	0xbcc889f2	-0.02447984
87	0xbdf6967b	-0.120404206
88	0xbd0cee6e	-0.03440707
89	0x3db52fa6	0.08846979
90	0xbd1233d2	-0.03569395
91	0xbe0e6500	-0.13905716
92	0xbdd777f5	-0.10520927
93	0x3de6172d	0.11234889
94	0xbd7ba573	-0.06143708
95	0xbe4b7a73	-0.1987093
96	0xbd4b82c3	-0.04968525
97	0xb9fde06e	-0.00048423134
98	0x3db9543c	0.090492696
99	0x3df6d2f3	0.12051954
100	0x3c8ba2bd	0.017045373
101	0xbd147b90	-0.03625065
102	0x3df156ba	0.1178412
103	0x3d71c878	0.059029073
104	0x3c40b579	0.011762016
105	0x3dd33aa8	0.10313922
106	0x3d27b414	0.04094322
107	0xbe21dae0	-0.1580615
108	0xbcf3aabc	-0.029744498
109	0xbdba2a9e	-0.0909016
110	0x3d058561	0.032597903
111	0x3d224590	0.03961712
112	0xbc590e52	-0.013248043
113	0xbe43a039	-0.19104089
114	0xbdd16636	-0.10224573
115	0xbe189844	-0.14901835
116	0xbe039f0f	-0.12853645
117	0xbe29f082	-0.16595653
118	0x3d3bce02	0.04585076
119	0xbc6953c6	-0.014241165
120	0x3d3d0fb5	0.046157558
121	0x3cb7dcaa	0.022444088
122	0xbd30e746	-0.04318931
123	0xbd9b080b	-0.075698934
124	0x3d5cd9a3	0.053918492
125	0xbd4b866e	-0.04968875
126	0x3d1e6b87	0.038676765
127	0x3e05edec	0.13079041
128	0x3de19a68	0.11015779
129	0xbd303b1d	-0.043025125
130	0xbca2a943	-0.0198561
131	0x3ae58051	0.0017509555
132	0xbd932d6c	-0.07186398
133	0x3e301638	0.17195976
134	0xbd8ebe3d	-0.06969879
135	0xbd5b54c2	-0.05354763
136	0xbdef5332	-0.1168579
137	0x3d5afa1b	0.053461175
138	0xbdc8ef33	-0.09811249
139	0xbd45403e	-0.04815697
140	0x3c32ce4b	0.010913442
141	0x3d2c3768	0.042045027
142	0x3d3d2db1	0.046186153
143	0x3e33807a	0.17529479
144	0x3c9822e6	0.018571328
145	0xbd5a51da	-0.053300716
146	0xbbba81de	-0.005691751
147	0x3e0a09c0	0.13480282
148	0xbe3e36b9	-0.18575563
149	0xbcabc1c4	-0.020966418
150	0x3de376f8	0.11106676
151	0xbc95a67b	-0.01826786
152	0xbc7a175e	-0.01526436
153	0x3da69b87	0.08135133
154	0xbe27c419	-0.16383399
155	0x3d06576e	0.032798223
156	0x3dc3d90d	0.095628835
157	0x3ddea51b	0.10871335
158	0x3c9df3ee	0.019281354
159	0xbde119e3	-0.109912656
160	0xbdd7fe84	-0.10546592
161	0x3d12d658	0.035848945
162	0xbdd0217f	-0.10162639
163	0x3d860bb1	0.06545199
164	0xbc952f0a	-0.018210907
165	0x3de27d3a	0.11059041
166	0x3ddaa8f1	0.10676754
167	0x3d6fa1df	0.05850398
168	0xbc859d1e	-0.01631027
169	0x3daf9c3d	0.08574722
170	0x3d1f383d	0.038871992
171	0x3cde9ad2	0.027173433
172	0xbc8dcc54	-0.017309345
173	0xbc648576	-0.013947835
174	0xbd8389bf	-0.06422757
175	0xbe694198	-0.22778928
176	0xbc96698b	-0.018360874
177	0x3d89c759	0.06727476
178	0xbddd8fef	-0.10818469
179	0x3d7aafaf	0.0612027
180	0x3c840a59	0.016118215
181	0x3da65c2c	0.08123049
182	0xbd755510	-0.059895575
183	0x3d4fcacb	0.050730508
184	0xbe0fe7df	-0.14053296
185	0xbd3cea34	-0.04612179
186	0xbdacc25d	-0.08435509
187	0x3c6b949f	0.014378696
188	0xbe0173d9	-0.12641849
189	0xbce148fa	-0.027500618
190	0x3cd54b7a	0.026036967
191	0xbcea4134	-0.028595544
192	0x3d932cb3	0.0718626
193	0xbd891cf1	-0.06694973
194	0x3c3af09b	0.011409904
195	0xbcae05ce	-0.021243002
196	0x3d20df6b	0.039275568
197	0xbd715394	-0.058917597
198	0xbc97419b	-0.0184639
199	0xbddc9118	-0.10769862
200	0x3d72b1e9	0.0592517
201	0xbd7abad5	-0.061213333
202	0xbd8f8042	-0.07006885
203	0x3c44e64c	0.012017798
204	0xbd3fc44a	-0.046818055
205	0xbc24b25c	-0.01005229
206	0xbd89c9f6	-0.06727974
207	0xbe0e54a6	-0.13899478
208	0xbe163f52	-0.14672592
209	0xbc90211b	-0.01759391
210	0xbd1717f1	-0.036888067
211	0xbdc366d6	-0.09541099
212	0xbd1e5815	-0.03865822
213	0x3dea6690	0.114453435
214	0x3da9aaf5	0.082845606
215	0x3d0ff5b4	0.03514643
216	0x3c07d6fa	0.0082910005
217	0x3c9da558	0.019243881
218	0x3d70cc41	0.05878854
219	0x3c262cfc	0.010142561
220	0x3d2e5d22	0.042569287
221	0xbc38eb5a	-0.011286581
222	0x3d524eb7	0.0513446
223	0xbd9479b4	-0.072497755
224	0xbd9615fc	-0.07328412
225	0x3908930d	0.00013024751
226	0xbddf4fd0	-0.10903895
227	0x3c9e30f5	0.019310454
228	0xbd2da408	-0.04239276
229	0x3cea88ac	0.028629623
230	0xbc81de43	-0.015853053
231	0xbd1459cd	-0.036218453
232	0xbd03565d	-0.032064784
233	0x3e41308d	0.18866177
234	0x3d2680d6	0.04065021
235	0x3a8733e0	0.0010315143
236	0xbbb971e9	-0.005659331
237	0x3c1bbbfb	0.009505267
238	0x3d9b4ed7	0.07583397
239	0xbd2b748d	-0.0418592
240	0x3de9bbc3	0.11412766
241	0xbc8262b9	-0.015916215
242	0x3b211485	0.002457888
243	0xbd0f2fa6	-0.03495755
244	0xbdf95d65	-0.12176017
245	0x3c96be14	0.018401183
246	0xbd45b54c	-0.0482686
247	0x3e0764cf	0.13222049
248	0x3d00dc3a	0.031460024
249	0x3dc01d79	0.093806215
250	0xbdbb4428	-0.09143859
251	0x3cd73fe7	0.026275588
252	0xbcc62984	-0.024189718
253	0xbe23f54b	-0.1601154
254	0xbc7fdf7e	-0.0156172495
255	0x3c8eee9b	0.01744776

fc2.bias f4 [128]
0	0xbe69d62e	-0.2283561
1	0xbe00a773	-0.12563877
2	0xbe150cbb	-0.14555638
3	0xbea92f73	-0.33044013
4	0xbe3a6b00	-0.1820488
5	0xbcd8e430	-0.026475996
6	0xbe767aff	-0.24070357
7	0xbe8edb75	-0.27901807
8	0xbd69f5dd	-0.05711924
9	0xbe8a2ef6	-0.26988953
10	0xbe8e2d9d	-0.27769175
11	0xbe998c5c	-0.29989898
12	0xbd96444c	-0.07337245
13	0xbeb14e51	-0.34630063
14	0x3dc23665	0.09483031
15	0xbe38f98c	-0.18063945
16	0xbebf7979	-0.37397364
17	0xbe06740b	-0.13130204
18	0xbe9d4b26	-0.30721396
19	0xbe777c96	-0.2416862
20	0xbe5e2492	-0.21693638
21	0xbe8d64de	-0.27616018
22	0xbe9ee9d7	-0.3103778
23	0xbe632d5d	-0.22185273
24	0xbe03ae75	-0.12859519
25	0xbec39a80	-0.38203812
26	0xbe1167d0	-0.14199758
27	0xbddffa50	-0.10936415
28	0xbec9fa80	-0.3944893
29	0xbe7b399f	-0.245337
30	0xbe56d3b6	-0.20979199
31	0xbea3bc8f	-0.31979796
32	0xbe4743cd	-0.19459458
33	0xbe808a57	-0.25105545
34	0xbe65c7ef	-0.2243955
35	0xbd7e8831	-0.0621416
36	0xbe4b8b70	-0.1987741
37	0xbe5a5eec	-0.21325272
38	0xbe8aaecf	-0.27086493
39	0xbe85e46a	-0.2615083
40	0xbd508171	-0.050904695
41	0xbe59c98d	-0.21268292
42	0xbea96ab4	-0.3308922
43	0xbed6eaea	-0.419761
44	0xbe9ac8b3	-0.30231246
45	0xbe81a792	-0.25323159
46	0xbebcc48f	-0.36868712
47	0xbe803ecf	-0.2504792
48	0xbe17d3d6	-0.14826903
49	0xbe2ea1ad	-0.17053862
50	0xbe2656b9	-0.1624402
51	0xbe19add8	-0.15007722
52	0xbe1315fb	-0.14363854
53	0xbe1bf1e4	-0.15228993
54	0xbdf84b0e	-0.121236905
55	0xbe54bee8	-0.2077595
56	0xbe23b190	-0.15985703
57	0xbea80033	-0.32812652
58	0xbe8f31ed	-0.27967778
59	0xbeb87bcb	-0.36031947
60	0xbeca7f6c	-0.3955034
61	0xbe1f494d	-0.15555306
62	0xbe449a00	-0.19199371
63	0xbc96299e	-0.018330391
64	0xbe8acaf2	-0.2710796
65	0xbe7142aa	-0.23560587
66	0xbe03cbf7	-0.12870775
67	0xbe954fea	-0.29162532
68	0xbe67d452	-0.22639588
69	0xbe89cd6f	-0.26914546
70	0xbe3e0f44	-0.18560511
71	0xbe8d67b7	-0.2761819
72	0xbea82089	-0.32837322
73	0xbe0303a4	-0.12794358
74	0xbe7341a9	-0.23755516
75	0xbe98e608	-0.29863
76	0xbe4f3ef4	-0.20238858
77	0xbd804984	-0.06264022
78	0xbdf4da3a	-0.11955686
79	0xbe42b489	-0.19014181
80	0xbe7edee6	-0.24889717
81	0xbe844f2c	-0.25841653
82	0xbe7e050e	-0.24806616
83	0xbec43904	-0.3832475
84	0xbeb3c5ad	-0.35111752
85	0xbe7fa44a	-0.24965015
86	0xbe67dece	-0.22643587
87	0xbe85cac1	-0.2613125
88	0xbcd716c4	-0.026255973
89	0xbda5e1e7	-0.08099728
90	0xbe76e88a	-0.24112144
91	0xbe9a6013	-0.30151424
92	0xbe9b79a3	-0.3036624
93	0xbe6dfd06	-0.23241052
94	0xbe81f62a	-0.2538312
95	0xbe4b0515	-0.19826157
96	0xbe1bdeef	-0.15221761
97	0xbe806bd9	-0.2508228
98	0xbec54a33	-0.38533172
99	0xbea90d8b	-0.33018145
100	0xbe918e8d	-0.2842907
101	0xbe2f809f	-0.17138909
102	0xbb9471e1	-0.004530177
103	0xbebe67f8	-0.37188697
104	0xbe98dc7b	-0.29855713
105	0xbe90432e	-0.28176254
106	0xbe3ebb2c	-0.18626088
107	0xbe129e61	-0.1431823
108	0xbe82d880	-0.255558
109	0xbe866495	-0.26248613
110	0xbe750609	-0.23928083
111	0xbdc43874	-0.0958108
112	0xbb0bac78	-0.0021312516
113	0xbeba3cd9	-0.36374548
114	0xbd0a42c1	-0.033755068
115	0xbdfdfe0a	-0.1240197
116	0xbe63bf06	-0.22240838
117	0xbe2f6c3f	-0.17131136
118	0xbdde69b2	-0.108600035
119	0xbe7838bb	-0.24240391
120	0xbe9bf2af	-0.3045859
121	0xbe9a1bbd	-0.30099288
122	0xbecb32d0	-0.39687204
123	0xbe69a603	-0.22817235
124	0xbe3d3cc2	-0.18480209
125	0xbe9fc92a	-0.31208163
126	0xbecc2a73	-0.39876136
127	0xbd29b220	-0.04142964
