eeg_lstm_model.pth (torch, 529894 bytes, 25 tensors)

lstm1.weight_ih_l0 f4 [512, 1]
000000 fb 88 13 bd 4f 91 da 3d c8 38 05 be bd a4 13 be
       -0.036019307 0.10672247 -0.13009942 -0.14418311
000010 22 70 28 bc f5 7d d7 bd c5 34 24 be 84 61 89 3d
       -0.010280641 -0.10522071 -0.16035755 0.06708053
000020 87 89 10 3c 0e fd 68 bc 6f 42 43 be 62 26 14 be
       0.008821852 -0.014220489 -0.19068311 -0.14467767
000030 69 19 87 3b a3 4e 32 be b2 5e 8d bd c8 19 1d be
       0.004122902 -0.1741281 -0.06902827 -0.15341866
000040 ab 3d 90 bc 31 8f 46 bc 77 fb 3b be ab 1a a1 bd
       -0.01760753 -0.0121191 -0.18357645 -0.07866415
000050 d4 67 85 bd 8b 4d b2 3d 18 1c 29 bd 85 42 c2 bc
       -0.06513944 0.087061964 -0.041286558 -0.02371336
000060 e2 50 85 bd ca 0c 91 bd b2 cb 0a bd 14 7e df bc
       -0.06509568 -0.070825174 -0.033885665 -0.027281798
000070 b9 d3 13 be 08 c2 81 bd 37 c7 0b 3d 35 0b 6b 3d
       -0.14436235 -0.06335837 0.034125533 0.057383735
000080 b9 70 e2 bd 44 64 25 bc e4 98 8a bd fa e5 ca 3c
       -0.110566564 -0.010094706 -0.06767443 0.024767864
000090 b7 fc 4f 3c 5b d8 35 bc 86 16 af 3b c6 e3 ac bc
       0.012694529 -0.011098946 0.005343261 -0.021104705
0000a0 c3 6a 4a 3d 9f d1 fd 3b 92 66 cc bc 60 e5 a2 bc
       0.049418222 0.007745936 -0.024951253 -0.019884765
0000b0 1e ad 9d 3d 6b ca f4 bd 99 45 a8 bd f5 98 1f bd
       0.07699035 -0.11952671 -0.082164 -0.03896423
0000c0 35 7d 0b 3e 64 f9 09 3d 9f 28 01 be 07 69 6b 3c
       0.13621981 0.033685103 -0.12613152 0.014368302
0000d0 d4 25 ce bd 4c d9 01 bd 7e fe 21 be 42 57 ba 3d
       -0.10065809 -0.03170137 -0.15819737 0.09098674
0000e0 7c 12 3f 3c 21 84 ba bd 42 9a d5 3b df 1e 83 ba
       0.011662122 -0.09107233 0.006518633 -0.0010003707
0000f0 8e f4 b2 bd 71 86 a2 bb f3 78 c3 bd 54 d9 78 bd
       -0.08738051 -0.0049598743 -0.095445536 -0.060754135
000100 62 71 c9 bd 7c 66 8b bd 54 16 af bc 68 02 02 bd
       -0.09836079 -0.06806657 -0.021372952 -0.031740576
000110 2c 69 d1 bd f8 45 19 3d 8e 3b e3 bd 9a 21 f7 3b
       -0.10225138 0.037420243 -0.110953435 0.0075418474
000120 a0 a7 45 bd b0 28 6c bd d4 3b 1d 3d 49 f8 b2 bc
       -0.048255563 -0.05765599 0.038387135 -0.021846907
000130 db c0 8e 3d 3a 9c d4 bd 30 98 83 3d 7f 1a 31 bd
       0.06970378 -0.1038136 0.06425512 -0.04323816
000140 43 27 1d bd a3 51 dc 3b 47 bf 24 be 71 b0 61 be
       -0.03836752 0.006723599 -0.16088592 -0.22039963
000150 02 d1 fe 3d f7 90 d9 3d fb 15 a4 bc 64 f9 a6 3d
       0.12442209 0.10623353 -0.020030012 0.08153036
000160 53 8d 9d bd 76 96 87 bd 9b 4e db bd b1 87 89 bd
       -0.07692971 -0.06620495 -0.10708352 -0.06715334
000170 62 31 50 3d 80 fd 90 3d 52 78 21 3d 8a c9 ac bc
       0.050828345 0.07079601 0.039421387 -0.021092195
000180 86 63 0d bd d4 77 05 be 24 b5 9f bd 7f 92 98 3d
       -0.03451874 -0.13033992 -0.07798222 0.07449817
000190 92 64 32 bc fb 09 e8 3c b7 ba 9e bd 92 28 8c bd
       -0.010888236 0.028325072 -0.07750457 -0.06843676
0001a0 6f 16 d6 bd 53 1f 88 bd 1e 60 d6 bc 35 1d 39 be
       -0.104534976 -0.066465996 -0.02616888 -0.18077548
0001b0 7e d4 6e 3d d4 aa 0f bd b3 a4 0c 3d 66 3d 8e 3d
       0.058308117 -0.035075024 0.034336757 0.069453046
0001c0 73 9c 9a bd 18 ea 87 bb da 5b b5 bd ea 76 42 bc
       -0.075493716 -0.004147779 -0.0885541 -0.011869172
0001d0 3a 19 7b bb 63 81 c8 bc 1b a3 a1 bd 2f b8 32 3c
       -0.0038314597 -0.024475759 -0.07892438 0.010908171
0001e0 57 b3 2d bd fe 18 ed bc 7e d8 83 bd d5 6e d3 3c
       -0.04240736 -0.028942581 -0.06437777 0.025809685
0001f0 f9 a7 1b be a8 b9 7e be 04 89 1a be b4 60 6e 3c
       -0.15200795 -0.2487551 -0.1509133 0.014549423
000200 e3 30 93 3d 4d 49 ea bc a3 79 e9 bc 0a 19 8b bd
       0.07187059 -0.028599406 -0.028500384 -0.06791885
000210 64 03 2b 3d f6 af 57 3d cb 9b bb bd c5 dc 14 3e
       0.04175128 0.052658044 -0.091605745 0.14537342
000220 de aa 78 3c da 8d 45 ba 67 53 0b be ea 68 52 3c
       0.015177457 -0.0007536091 -0.13606034 0.012842396
000230 c1 8a 01 3e b7 92 96 bd 71 44 d2 bc 46 98 4d 3d
       0.12650587 -0.073522024 -0.025667401 0.050194047
000240 c5 0f 7c bd 48 ed 7c bd 30 81 1f be 52 02 a0 bd
       -0.061538476 -0.061749727 -0.15576625 -0.078129426
000250 f7 6c 9c 3c 75 45 91 3d a8 12 69 bc ea 15 00 bd
       0.019094927 0.07093326 -0.014225639 -0.0312709
000260 1a 0f 73 bd 8b a8 31 bd 08 22 c1 bd a9 df 84 3d
       -0.059340574 -0.043373626 -0.09430319 0.06487972
000270 1a b3 67 3c 23 e0 8a bd 29 f3 8e 3d 14 81 56 b8
       0.014141822 -0.06781032 0.06979973 -5.114179e-05
000280 3b 3d 9a bd e5 d5 ba bd 21 07 7d bd fc 30 82 3d
       -0.0753121 -0.091228284 -0.061774377 0.06356999
000290 bc d8 d7 3d 21 1b b1 bd 57 4f b9 bd 6b e4 25 3e
       0.10539386 -0.086477526 -0.09048336 0.16200416
0002a0 fb 83 4e 3c 30 eb 1c 3d da 10 35 3c ce 30 9c bd
       0.012604709 0.03831023 0.011051381 -0.07626496
0002b0 93 a8 d2 bb f5 7e b9 bc 55 49 12 be 11 e7 0b 3d
       -0.006428787 -0.022643546 -0.14285786 0.03415591
0002c0 8b 8a 79 3e 2d 1a 67 3d d2 62 6c 3d 3a cd 16 3e
       0.24369256 0.056421448 0.05771143 0.14726725
0002d0 13 8c c7 bd 7a 96 e9 3d 39 f4 93 be 0a a6 1d bd
       -0.09743514 0.11405654 -0.28897265 -0.038488425
0002e0 96 25 5a bc a0 61 5b bd 16 a0 dc bd 86 51 29 3d
       -0.013314625 -0.0535599 -0.107727215 0.041337512
0002f0 9a 12 4b bc d4 bf 97 3d 0b fb 9a 3c 19 fb a6 3d
       -0.012394572 0.07409635 0.018918535 0.08153362
000300 ec e9 8d bd 18 e5 9b 3d b1 81 b5 3d d6 18 c1 3d
       -0.06929383 0.076120555 0.08862627 0.09428565
000310 0b f0 90 bc 71 79 7e bd ee 69 f2 3d 9d af 1a 3e
       -0.017692586 -0.062127534 0.11836611 0.15106054
000320 f1 db 92 bc 91 e0 ae 3d f4 74 9a bc e9 cf 8e bd
       -0.017927142 0.085389264 -0.018854596 -0.069732495
000330 88 12 fe 3d 02 fb 9d bc 0a 6b b1 3c 9d 57 5f bd
       0.12405878 -0.019284729 0.021657486 -0.054526914
000340 f7 6c bd bd 11 6a 8b bd bd 52 16 be ac ee e5 bd
       -0.09249299 -0.0680734 -0.1468 -0.11227164
000350 8a 2e af bc c0 1e a2 3d 8d 40 72 bd a3 5d a4 3d
       -0.021384496 0.07916021 -0.05914359 0.08025672
000360 75 a8 96 3b 71 e2 d1 bc 13 02 06 be b4 6e b6 bd
       0.0045977184 -0.025620671 -0.13086729 -0.08907834
000370 73 17 b5 3d 0d 10 a5 bd cb bc 85 3c 29 29 cf bd
       0.08842363 -0.08059702 0.016325375 -0.101152726
000380 32 b5 7f bc 99 4e c4 bd 3c 50 87 bd f8 3f be bd
       -0.015607165 -0.09585304 -0.066071 -0.09289545
000390 19 5e da 3c cd 13 0a be cc 4c 30 3c 2e 75 65 3b
       0.026656197 -0.13484116 0.010760497 0.0035012471
0003a0 f1 28 bf bd cc 55 1a 3c f5 d3 e3 bd 57 35 75 bd
       -0.09333981 0.00941987 -0.11124412 -0.059865322
0003b0 09 db f0 bb 83 cd e2 bc 0a 5c ba 3c 7d b4 8e bc
       -0.00735033 -0.027685886 0.022748966 -0.017420048
0003c0 15 63 81 bd 88 57 a3 bd 70 21 b6 3b 21 03 e0 3d
       -0.063177265 -0.0797568 0.0055581853 0.10938097
0003d0 ca 85 15 3d d8 fe 30 3c 7a 93 03 ba e1 39 6b 3d
       0.036504544 0.010802947 -0.0005019229 0.057428245
0003e0 00 49 f2 bc ed f7 ed 3d a1 f3 61 bd ee 37 e4 3c
       -0.029575825 0.11619554 -0.055163983 0.0278587
0003f0 4f f5 3d bc 70 4c 3e be 4c b4 24 be 94 f6 17 3d
       -0.011594131 -0.18583846 -0.16084403 0.03710039

lstm1.weight_hh_l0 f4 [512, 128]
000000 ce 26 74 3d 00 bf 36 3d 34 a4 23 3e 64 c8 f7 ba
       0.05960732 0.044615746 0.15980607 -0.0018904326
000010 2f 38 85 bd 68 76 89 bc d5 3f e2 bd 59 6f 3a bd
       -0.06504857 -0.016780093 -0.11047331 -0.045516346
000020 ae 2c bf bd cb b2 1d bd 07 4f 72 bd 3e bd 32 3d
       -0.09334694 -0.03850059 -0.059157398 0.043637507
000030 ee 37 d1 bd e6 40 80 bc e1 5e 93 bd 33 3e 90 3d
       -0.10215746 -0.015655946 -0.07195831 0.070431136
000040 9a 4b 06 be 84 05 93 3d b9 51 05 3d 0e 8c 13 bd
       -0.13114777 0.071787864 0.03254864 -0.03602224
000050 ad 71 0c be 3b 27 bf bd 14 f2 c3 3d e2 33 9f 3b
       -0.13715239 -0.093336545 0.09567657 0.00485848
000060 74 66 69 bd da 78 c1 3d e4 10 16 bd bf f9 35 bc
       -0.056982473 0.09446879 -0.036637202 -0.011106907
000070 09 d0 07 be 45 45 f0 3d 7c 2f 0b bd da 5a fa 3c
       -0.13262953 0.11731962 -0.03398083 0.0305609
000080 e3 dd 26 3d a6 55 1f 3d c3 b0 6d 3d 9b 2d 72 3d
       0.04073895 0.03890004 0.0580299 0.059125524
000090 da 88 c1 3d 8f a6 ea 3c cb b2 8b 3d 8f e9 ac bd
       0.094499305 0.028643874 0.068212114 -0.08442985
0000a0 73 28 68 3c e1 d8 a8 bd 8d fd dc 3d b5 24 2d bd
       0.0141698 -0.08244491 0.107905485 -0.042271335
0000b0 f4 76 43 3c 7a 7c da 3d a3 d1 c3 bd 77 92 ad 3b
       0.011930216 0.10668273 -0.095614694 0.005297001
0000c0 b4 f7 f8 bd 56 11 96 3d e0 d4 3f 3d a5 d6 44 3d
       -0.121566206 0.07327525 0.046833873 0.048056263
0000d0 27 fc 39 3d fd d3 9f 3d 7c a0 1a 3e f2 42 be 3d
       0.045406487 0.078041054 0.15100282 0.092901126
0000e0 29 38 f7 bc 2e 6b 61 bc 62 66 f2 3b 6e 2e b9 3c
       -0.030178146 -0.013758464 0.007397459 0.022605147
0000f0 77 52 c1 bd fe f0 d8 bc a0 0b 4e bc 66 24 13 be
       -0.09439557 -0.026482102 -0.012576014 -0.14369354
000100 f6 51 01 3d 6b 4e d6 bd df 22 0e bd 55 26 06 bd
       0.031572305 -0.10464176 -0.034701224 -0.0327514
000110 03 48 54 3d 9a cc 10 bd c5 89 cd 3d 7e f0 37 3c
       0.05182649 -0.035351373 0.10036043 0.011226771
000120 8b d7 98 3d fa e1 59 3d 3e 16 10 3e 37 e3 e7 3d
       0.074629866 0.053194024 0.14070985 0.11322635
000130 bb 9a d4 3c be de 5d bc 69 5f d7 ba 6d ba 92 bc
       0.025952687 -0.013541875 -0.0016431633 -0.01791116
000140 2e 00 8d 3d fb 3d f6 bd b6 13 39 3c 06 a7 20 bc
       0.068848 -0.120235406 0.011296203 -0.0098054465
000150 a0 7d 08 bd 13 6e 09 3e 89 52 fd 3c 8a ac b9 bd
       -0.03332293 0.13420896 0.030923145 -0.09066112
000160 7b d0 c2 3d 1a 99 38 3d 5c 43 10 3e e6 49 e1 bd
       0.09512421 0.045067884 0.14088196 -0.11000423
000170 0c a6 1f 3c 78 1c 99 bd 73 4e 9c bd be e0 08 3e
       0.0097441785 -0.07476133 -0.076321505 0.13366982
000180 8b ad 93 3c b1 35 b9 3c 41 e5 15 3e 99 de a4 3d
       0.018027088 0.02260861 0.14638235 0.0805027
000190 95 9f 8a bd 87 1c 91 3d ad ad 89 3d 6d 40 49 3d
       -0.06768719 0.07085519 0.06722579 0.049133707
0001a0 e9 42 68 3c f2 cf 40 3c 6b 99 84 bd 62 44 28 3d
       0.014176109 0.011768328 -0.06474575 0.04108084
0001b0 c9 9e 37 bd 2d ff e6 3d 58 a3 a1 bd e7 6d 7c bd
       -0.044829164 0.1127914 -0.078924835 -0.06162825
0001c0 9a 93 18 be 3e d5 1e bc 3a 73 b8 3d 65 39 9b 3d
       -0.14900056 -0.009694396 0.09006353 0.075793065
0001d0 0a 3d 7d bd 48 9a d0 3d fb cf 8a bd 17 6e 3c bd
       -0.06182579 0.10185677 -0.067779504 -0.046003427
0001e0 75 9c 9c 3d ad 6c 54 3c 9c ee f6 3d 85 da 80 bb
       0.07647029 0.012965363 0.1205723 -0.0039322996
0001f0 5d e0 a6 bd 0f 5b 00 be b7 fc 95 3d de e1 c8 bb
       -0.08148263 -0.12534736 0.07323592 -0.006130441
000200 dc 29 85 3d 4c 7a 38 3e ac f2 45 3c 5e ee 20 3d
       0.06502125 0.18015403 0.012081783 0.039289825
000210 6e d7 06 3c 1a 41 24 3d a7 ce ce 3c 54 81 0d bd
       0.008230073 0.04010115 0.025245024 -0.034547165
000220 6d c0 6c 3d 59 66 32 bd 0a 24 8e 3d 25 4a bb 3c
       0.0578007 -0.043554638 0.06940468 0.022862503
000230 6e f6 a7 bd fb e0 e1 bb 82 f5 31 3d 43 82 85 3d
       -0.082012996 -0.006893275 0.043447025 0.06518986
000240 9e da e9 3c f3 b4 48 bd 25 6e b4 bd ac 9f ee bc
       0.028546628 -0.04900069 -0.08810071 -0.029128872
000250 b3 7f 4e bc 7f a6 71 bd 33 8f 2b 3d ea 97 98 3d
       -0.012603688 -0.058996674 0.041884612 0.0745085
000260 8a ae e1 3b 95 32 c5 3c 58 65 84 bd dd 51 e5 3c
       0.0068872618 0.024071971 -0.06464642 0.027993137
000270 dd d0 87 bd dd 83 b4 3c ca e4 c0 bd b0 02 5e bd
       -0.066316344 0.022035534 -0.09418638 -0.05420178
000280 5d 32 b1 bc 80 a8 42 3c 92 cf 64 bc 9a b1 af 3c
       -0.02163046 0.011880994 -0.013965504 0.021446992
000290 4b 0d 66 bc 2f 3b 80 bc 7c 60 da bc 6f 82 7b 3c
       -0.014041255 -0.015653221 -0.026657335 0.015350922
0002a0 1f f2 8a 3d 56 84 c0 bd 47 03 2c 3d 32 c1 b4 bd
       0.06784462 -0.09400241 0.041995313 -0.088259116
0002b0 5e 88 ee 3c 80 f1 01 be d1 77 41 3d f5 0e 45 3d
       0.02911776 -0.12689781 0.047233406 0.048109967
0002c0 92 76 05 bd 4b a3 a3 3d 27 e5 af 3c 55 79 ff 3b
       -0.03258378 0.0799013 0.021471573 0.0077964463
0002d0 47 50 73 3b 19 60 86 bd 4e ba b4 bd 64 0b 17 3e
       0.0037126706 -0.06561298 -0.08824597 0.14750439
0002e0 3f ea 5a 3d f6 32 b7 3c e5 fc 6d 3d a1 f7 99 3d
       0.05344605 0.022363167 0.058102507 0.075179346
0002f0 f5 08 cb 3c d7 92 ff 3d 72 0a 27 bd 66 5c 80 bd
       0.024784544 0.12479179 -0.040781446 -0.062676236
000300 db e3 2c 3c ab 93 27 bd 56 a2 95 bd 34 bd 33 bd
       0.010552372 -0.04091231 -0.07306354 -0.04388161
000310 82 5a aa 3d 55 78 a2 3d 23 3f 87 3d 2f 29 b1 3d
       0.08318044 0.07933108 0.06603839 0.08650433
000320 eb 1d 2f 3d d6 de f1 3b e3 d9 26 bc 36 03 99 bd
       0.04275314 0.0073813004 -0.010183784 -0.074713156
000330 11 48 9e 3c a9 7e f5 3c 8e 9f 92 bd cb 48 3a 3d
       0.019321473 0.029967623 -0.07159339 0.045479577
000340 b1 26 c4 3d cf 82 bb 3d 74 ee 0e be 67 bd 11 3d
       0.09577692 0.09155809 -0.1395815 0.03558102
000350 0a e2 a9 3d 78 70 1d bd b9 e4 7b 3d be d1 0d bd
       0.08295067 -0.038437337 0.061497424 -0.034623854
000360 02 55 f1 bc b6 37 fc 3c f6 81 c7 bb 17 7c 5b 3c
       -0.02945948 0.030788284 -0.0060884906 0.013396285
000370 ad 6e 1c bd 82 5c fb 3d 2d c3 44 bc f7 4f 82 bd
       -0.038191486 0.12273504 -0.012009424 -0.06362908
000380 70 32 c3 3d ba c5 06 bd 7a b5 c4 bd 3c bd 84 bc
       0.095311046 -0.03290341 -0.096049264 -0.016203515
000390 92 88 bf 3d bd 12 79 bd 62 75 32 bd d0 0d 9f bb
       0.093522206 -0.060808886 -0.043568976 -0.0048539415
0003a0 ab 1e 26 bd 27 ba 25 bd 4c 3c 66 bd aa 02 68 bd
       -0.04055659 -0.04046073 -0.056209847 -0.056643166
0003b0 a3 07 d5 bd aa 84 b5 3c af 29 7b bc cd 70 1a b8
       -0.10401847 0.022157986 -0.015329762 -3.6821515e-05
0003c0 c7 8c b1 3d 22 47 aa 3d 49 8f 19 3e 9b ff 88 3d
       0.08669429 0.08314349 0.14996065 0.06689378
0003d0 1e d9 47 3d bc d1 45 bc a8 70 2f bd 6d 9c 59 bd
       0.048791043 -0.01207393 -0.042832047 -0.053127695
0003e0 9c dd 85 bd 3b 4a 28 3c 95 9b a5 bc 28 81 82 3d
       -0.06536409 0.010271604 -0.020215789 0.06372291
0003f0 de 3f 1c bd 3f 4c ea 3d 1e ad ce 3a 0e 98 36 bd
       -0.038146846 0.11440324 0.0015768146 -0.044578604

lstm1.bias_ih_l0 f4 [512]
000000 8b b1 4b bc c3 ad 77 b9 2a 0f 48 be ec 94 61 be
       -0.012432466 -0.00023620487 -0.19537035 -0.22029465
000010 60 49 34 bd 20 97 91 bd 78 8a 70 be 7e c1 43 bd
       -0.04401529 -0.07108903 -0.23490322 -0.04779195
000020 a5 35 af bd 60 5a bf bd f9 09 0d be 9b 23 69 be
       -0.08555154 -0.093434095 -0.13773336 -0.22767489
000030 09 0c 4b bd c0 50 4f be 39 5c af bc 4f a0 6e be
       -0.049572024 -0.20245647 -0.02140628 -0.2330334
000040 89 84 a1 bd 74 f3 51 be 09 5a 0d be d3 12 aa bd
       -0.07886607 -0.20503026 -0.13803877 -0.08304372
000050 e6 49 18 be bc 04 2b be 00 43 5d be c1 20 e2 bd
       -0.1487194 -0.16701025 -0.2160759 -0.110414036
000060 49 8d 37 be 86 28 59 be 13 98 59 be f3 a5 00 be
       -0.1792499 -0.21206865 -0.21249418 -0.12563305
000070 34 9a 5f be f2 3d 5b be 3e 10 95 bd aa f4 9b bd
       -0.21836168 -0.21410349 -0.072784886 -0.07615025
000080 27 d1 82 be 07 c0 35 bd ec ff 1e be 64 99 55 be
       -0.25550196 -0.044372585 -0.15527314 -0.20859295
000090 f6 37 8a be 21 9e 04 be 2f 9d 66 be 8a 24 f5 bd
       -0.2699582 -0.12950946 -0.22520898 -0.1196986
0000a0 74 8d 26 be bd a8 0c be a1 84 54 bc cd 29 8f be
       -0.16264898 -0.13736244 -0.012971074 -0.2796158
0000b0 05 6f 2b be 45 06 72 be d5 af 63 be c0 19 25 be
       -0.1674157 -0.23635204 -0.22235043 -0.16123104
0000c0 f6 12 38 3c 18 fd 83 be 1a 78 22 be c9 53 6f be
       0.011234989 -0.25779033 -0.15866128 -0.23371805
0000d0 04 bf 0f be be 86 10 be 9c 86 97 bd ee f7 fc bc
       -0.1403771 -0.141139 -0.073987216 -0.03087994
0000e0 e4 9c 9c bd ba 6b 78 be 5f a3 93 be da 15 88 be
       -0.07647112 -0.24259844 -0.2883558 -0.2657917
0000f0 67 aa bd bd e6 5f b7 bd c0 da 29 be 2d e7 24 be
       -0.09261017 -0.08953838 -0.16587353 -0.16103812
000100 a3 29 8f bd 59 89 cb bd fc b8 39 be d9 ab 2f be
       -0.069903634 -0.09938306 -0.18136972 -0.17155398
000110 ea c9 51 bc ae 3a ac bd 09 16 0c be 6e 45 6b bd
       -0.012804488 -0.0840963 -0.1368028 -0.05743926
000120 ce 8f 55 be 49 b9 12 be 8c 1b c7 bd db ca 2c bd
       -0.20855638 -0.14328493 -0.09722051 -0.042185646
000130 ae da e3 3b f5 99 16 be cb be fb bd bd 2a 06 bd
       0.006953559 -0.14707167 -0.1229225 -0.032755602
000140 d0 94 0c bd 1d 68 8c be 7e 48 0f be 2e 09 97 be
       -0.034321606 -0.27423182 -0.13992497 -0.2949919
000150 74 0a b4 bd ed 2e 2c be e5 8d 7a be 06 ec 08 be
       -0.08791056 -0.16814776 -0.24468191 -0.13371286
000160 5c 5a 50 be 01 bd 26 bd 60 46 f2 bd fc 1b 5e bd
       -0.2034697 -0.040707592 -0.11829829 -0.054225907
000170 9f a9 0a be 18 1a 01 be ad 7a 17 be 9f b2 c8 bd
       -0.13541268 -0.1260761 -0.14792891 -0.09799694
000180 8a a1 9b bd c9 29 11 be 4d 7b 6e be ef 9f c7 bd
       -0.075991705 -0.14176096 -0.23289223 -0.09747302
000190 ac 99 92 be 82 14 b0 be 0e 85 de bc b0 53 25 be
       -0.28632867 -0.34390646 -0.027163055 -0.16145205
0001a0 ca 61 13 3c 93 4a 00 be bd b9 f3 bd e4 63 16 be
       0.008995483 -0.12528448 -0.11900661 -0.14686543
0001b0 7d fd 87 be 70 14 79 be 16 ba 54 be 13 da ed bd
       -0.26560584 -0.24324203 -0.20774111 -0.1161386
0001c0 ba de 43 be 81 1a 31 be 57 15 19 be 00 f8 67 be
       -0.19127932 -0.17295267 -0.14949547 -0.22653198
0001d0 87 02 5a be 7a 05 18 be 0f c6 31 be c1 10 82 be
       -0.21290027 -0.14845839 -0.1736071 -0.25403407
0001e0 ed a8 00 be 4d c4 20 bd 47 5b 83 bd a5 ef 18 bd
       -0.1256444 -0.039249707 -0.06413894 -0.037337918
0001f0 87 9a ea bd 02 1d 05 be 7a 90 14 be 9f 13 cd bd
       -0.11455255 -0.12999347 -0.14508238 -0.10013508
000200 09 fe 20 bd ab fd 67 be 77 54 de bc b9 c5 5a bd
       -0.039304767 -0.2265536 -0.027139885 -0.05341122
000210 0a 63 01 be e9 cc f8 3d 40 ea b3 bd 02 66 47 3e
       -0.12635437 0.121484585 -0.08784914 0.19472507
000220 bd 39 b1 3b 4b 88 ef bd ef b0 08 be 27 74 22 be
       0.0054084943 -0.11695918 -0.13348745 -0.15864621
000230 ae 98 d4 3c 89 f7 41 be 94 48 bc bd 7a 31 ed bc
       0.02595171 -0.18942083 -0.09193531 -0.028954256
000240 ef 92 68 3d 58 0e f0 3c 36 39 12 be 51 46 61 3d
       0.05678075 0.029303715 -0.14279637 0.0549987
000250 80 cd f4 3c 60 b9 0c be 66 81 d9 bd f4 51 92 bd
       0.029883146 -0.1374259 -0.10620384 -0.071445376
000260 0e da aa bd 2d 12 d7 bd b2 54 19 be 60 8d f8 bd
       -0.08342372 -0.10501514 -0.14973715 -0.1213634
000270 2e 89 41 be 9b f2 56 bd 7d 03 e5 bc 0c 3c 58 be
       -0.18899986 -0.05247746 -0.027955765 -0.21116656
000280 00 5d 80 3c ca 12 f2 bd 9d 11 3f bd ac 5d 8a bd
       0.015669346 -0.1181999 -0.046647657 -0.06756148
000290 37 d4 e3 bd 69 0d b0 bd f7 ac 43 be 77 bc 2f 3d
       -0.11124461 -0.08596308 -0.1910895 0.042904343
0002a0 32 68 15 bd 4b 05 b7 bd 6d 08 29 3e e9 a3 42 be
       -0.03647632 -0.089365564 0.1650712 -0.1900784
0002b0 8c 9c 32 ba 06 a5 4a be 8a d5 f3 bc 75 10 4a bd
       -0.00068134884 -0.19789514 -0.02976491 -0.0493321
0002c0 92 e8 83 3e ad ab ef 3b 42 c3 57 3b f3 64 53 bd
       0.25763375 0.0073141665 0.003292278 -0.051609945
0002d0 70 85 86 bd 72 2d 21 be ae b5 ad bd b1 54 02 be
       -0.0656842 -0.15739992 -0.08481918 -0.1272762
0002e0 d5 7d e8 bd 55 32 35 be 3e cf ec bd 5d ee 62 bc
       -0.113521256 -0.17694981 -0.11562966 -0.013850776
0002f0 8f 0a aa 3c ee 6f 81 3d 91 0d d2 bd ff 20 b6 bc
       0.020756988 0.06320177 -0.10256494 -0.02223253
000300 ce 0d d4 bd f9 03 01 bd cf 13 ae bc c2 b9 0a be
       -0.103541955 -0.03149793 -0.02124968 -0.13547423
000310 82 5b e8 bd 93 c1 1c be 6a 8d d4 3a e5 87 0e 3e
       -0.11345579 -0.15308218 0.0016216461 0.13919027
000320 d0 38 6b bb 48 e1 55 bc 2b 45 6f bd b7 79 81 bd
       -0.0035892017 -0.0130541995 -0.058415573 -0.063220434
000330 fd c6 1c 3e 81 11 40 3c dd 71 86 bd 2b 45 d2 3d
       0.15310283 0.011722923 -0.065646864 0.10267099
000340 80 9e ba bb 2b 04 35 be 9b 90 7e bd 60 e9 e5 bd
       -0.005695164 -0.17677371 -0.062149625 -0.112261534
000350 08 d7 de bd 77 b2 0d be 2c 42 62 be 2a 5e d3 bd
       -0.10880858 -0.1383761 -0.22095555 -0.10320695
000360 32 b6 ca 3c 15 6c cf bd 56 16 3a 3c f8 21 2d 3e
       0.02474508 -0.10128037 0.011357864 0.1690749
000370 09 ba 95 bd 3c 1f 3d bd 4a ba 31 bd 5b 49 2a 3c
       -0.07310874 -0.046172366 -0.04339055 0.010393466
000380 3b cd cf 3c 89 84 97 bd fb df bf bc 7c 4d 59 be
       0.025366416 -0.07398326 -0.023422232 -0.21220964
000390 11 9f 3d be f4 36 39 be a4 07 58 bd 04 68 aa bc
       -0.1851771 -0.18087369 -0.05274166 -0.020801552
0003a0 8b ae 9a 3d ca ca a5 bd 81 13 aa 3c 80 78 1b bb
       0.07552823 -0.080953196 0.020761253 -0.0023722947
0003b0 2f 4f 8a bd f5 45 a2 ba 37 67 a3 bd 50 55 a0 bd
       -0.06753384 -0.0012380468 -0.07978671 -0.07828772
0003c0 63 70 a0 bd dd f8 3a bd fc 07 39 bd 2d e5 d4 bd
       -0.07833936 -0.04564749 -0.04517363 -0.10395274
0003d0 6b 6c 78 bd 9f 4e 71 be 64 87 13 bd d2 8b d3 bd
       -0.06065027 -0.23565148 -0.03601779 -0.10329403
0003e0 be 19 18 be 9c 95 2a 3d 0f db ae 3d ee 16 19 3b
       -0.1485357 0.041646585 0.08537876 0.0023359614
0003f0 48 62 3b be b7 dc e0 bd 51 16 6e bd b3 97 e1 bd
       -0.1829921 -0.10979598 -0.05812675 -0.110152625

lstm1.bias_hh_l0 f4 [512]
000000 c7 5d 22 be 67 64 23 bc ac 3b 3d be da 3b 35 be
       -0.15856086 -0.009972668 -0.18479794 -0.17698613
000010 0c 85 6a bd 7d 73 87 bc e6 23 65 be d1 98 bc bc
       -0.05725579 -0.016534561 -0.22376975 -0.023022087
000020 3b b1 c4 bd ae 54 1e be f9 e7 87 be db c6 c2 be
       -0.096041165 -0.1546199 -0.2654417 -0.3804234
000030 0c bd f4 bd 34 f0 9b bd 3f ea 2b be e2 0e d6 bd
       -0.1195012 -0.076141745 -0.16788577 -0.104520574
000040 39 18 10 be fa b6 58 be bf 51 53 be 92 2f 07 be
       -0.1407174 -0.2116355 -0.20636652 -0.1320174
000050 c9 58 1a be a0 32 de bd 68 c1 67 be ed 97 bc bd
       -0.15072931 -0.108495 -0.22632372 -0.09208665
000060 75 bb 6e bd d2 15 04 be e3 38 02 be 29 9c 32 be
       -0.05828424 -0.12898949 -0.12717013 -0.17442383
000070 54 7b 68 be be c3 5a be a9 e0 10 be 8b 12 07 be
       -0.22703296 -0.21363732 -0.14148201 -0.13190667
000080 ab 6b 3a be 39 5f 2f be 79 36 9c be 4a 06 46 be
       -0.18205135 -0.17126168 -0.3051031 -0.19338337
000090 a6 61 40 be 2b 91 8e bd e8 bd 82 be a1 2c 62 bd
       -0.1878725 -0.06961282 -0.25535512 -0.055218343
0000a0 ae f7 17 be 2f d9 a8 bd f3 c3 e0 bc e2 20 12 be
       -0.14840576 -0.082445495 -0.027437186 -0.14270356
0000b0 88 ee 14 be 01 2a 42 be 71 4d 67 be 4c 4a 04 be
       -0.14544117 -0.18961336 -0.22588135 -0.12918967
0000c0 94 c4 18 3a 11 ef ee bd 4e c3 1e be b5 40 6d be
       0.0005827632 -0.11666692 -0.1550419 -0.23169215
0000d0 13 7e 1e be d9 db 61 be cb 82 05 be f7 ba 11 be
       -0.15477781 -0.22056521 -0.13038175 -0.14231478
0000e0 17 e8 ba bd 3f 14 a9 be 1d 9f 8d be eb f3 67 be
       -0.09126299 -0.3302326 -0.27660456 -0.22651641
0000f0 48 38 80 be af 64 23 be 22 b7 91 be 64 92 c1 bb
       -0.2504294 -0.15956376 -0.28460032 -0.0059073437
000100 66 f5 2a be 3b a2 c0 bd ac c8 89 be 75 23 1e be
       -0.16695175 -0.09405943 -0.26910913 -0.15443213
000110 5e 21 bb bd c8 5f dc bd 1c f2 f2 bd a2 37 a6 bd
       -0.09137224 -0.10760456 -0.11862585 -0.0811608
000120 38 f8 f2 bd bc 6b 14 be 39 cb 1d be 58 37 b2 3c
       -0.1186375 -0.14494222 -0.15409555 0.021754906
000130 12 6d b3 bc eb 5a 2b be 6f 16 2e be 0d c3 03 bd
       -0.021902595 -0.16733901 -0.17000745 -0.032168437
000140 e5 f2 e6 bd 98 a7 81 be 2e af 1f be 59 60 1a be
       -0.11276797 -0.25323176 -0.1559417 -0.15075816
000150 50 b1 89 bd 2f 76 d2 bd ed 24 9e be 4a 49 92 bd
       -0.06723273 -0.10276448 -0.30887547 -0.07142885
000160 a6 f9 07 be 7d d2 c5 bd 91 30 e4 bd b3 62 05 be
       -0.13278827 -0.09659288 -0.11142076 -0.13025932
000170 d2 89 62 bd f0 3c 41 be 33 88 b5 bd df 41 14 be
       -0.055307217 -0.18870902 -0.088638686 -0.14478253
000180 6e f5 43 be ed 09 28 be 3e 03 be bd 7b 0c b4 bd
       -0.19136593 -0.16410036 -0.09277962 -0.08791443
000190 66 34 7c be b7 8f ab be 48 39 1f be 3c ae 29 be
       -0.24629363 -0.33508083 -0.15549195 -0.16570371
0001a0 98 fe d4 bd 70 db 76 be 3f 97 1a be 00 5f 1f be
       -0.104001224 -0.24107146 -0.15096758 -0.15563583
0001b0 9e 87 93 be 5e 05 60 be 1c 94 72 be a0 a0 17 be
       -0.28814405 -0.21877047 -0.23689312 -0.14807367
0001c0 32 be 45 be 43 39 91 bd da a7 63 be 14 6d 14 be
       -0.19310835 -0.07091 -0.22231999 -0.14494735
0001d0 81 26 0a be ce 12 1e be bc e7 b2 bd f0 8b 14 be
       -0.1349125 -0.15436861 -0.08735606 -0.14506507
0001e0 34 08 45 be 2d 11 7d bd 81 08 03 3d b5 cf 89 bc
       -0.1924141 -0.06178396 0.03199053 -0.016822675
0001f0 20 02 55 be 78 4e 70 be 0a d4 39 be 36 5a 81 bd
       -0.20801592 -0.23467433 -0.18147293 -0.063160345
000200 b4 b2 7a bd ab 64 11 be 5f 02 b5 bd 96 e2 fa bd
       -0.06120558 -0.14198558 -0.08838343 -0.12250249
000210 d6 3e fd bd 81 d2 5c 3d d6 7e af bd 9e 63 42 3e
       -0.12365501 0.05391169 -0.08569114 0.18983313
000220 57 e9 c7 3d f9 08 1c be 3a ce fc bd e9 c3 29 be
       0.09761303 -0.15237798 -0.12344022 -0.1657864
000230 ad 6a 33 3d b5 8c 52 be 81 11 1f be c9 f4 31 bc
       0.043802906 -0.20561488 -0.15534021 -0.010861584
000240 56 40 95 bd e1 29 2d 3d cb 3f 00 bd 5b f6 8a bd
       -0.07287662 0.042276267 -0.031310838 -0.0678527
000250 dc 42 c7 3d f2 fb fa bd 58 80 c0 bd 10 9c 24 be
       0.09729549 -0.12255086 -0.0939948 -0.16075158
000260 8d c5 5d bd fc 1f 40 be 72 1d bb bd 70 8b e6 3b
       -0.054143477 -0.18762201 -0.091364756 0.007035665
000270 9a f6 57 be 51 cf cc bd a5 b9 06 be 06 bd 6c be
       -0.21090165 -0.1000048 -0.13156755 -0.23118982
000280 c0 02 6b bd 00 96 a3 3c 4e 88 3e be 09 37 06 3d
       -0.05737567 0.019968987 -0.18606684 0.03276733
000290 bd 18 03 be 4b 32 ad bd a8 ac c8 bd 76 a0 cd bc
       -0.12802406 -0.08456858 -0.097985566 -0.025100928
0002a0 66 cb f9 3b 8b f7 99 bd fd de 9f 3d 83 f3 b4 bd
       0.007623124 -0.07517918 0.078062035 -0.08835509
0002b0 d6 6f f1 bc 90 ce 19 be 09 b3 a0 bd d6 4e eb 3d
       -0.029472273 -0.15020204 -0.07846648 0.11489646
0002c0 b3 da e7 3d e6 01 9c bd c2 3c a2 ba 6f 7e 3e 3d
       0.113210104 -0.076175496 -0.0012377726 0.046507295
0002d0 e2 58 0f be 87 03 a7 3b 08 51 98 bd a1 68 ec bd
       -0.1399875 0.005096856 -0.074373305 -0.11543394
0002e0 f3 03 b1 bd a9 92 c8 bd 6e 2f 8d bd 2d 1e c3 bd
       -0.086433314 -0.09793598 -0.06893812 -0.0952724
0002f0 b4 2a 12 bd 0f bc 8f 3d 71 ff 1e bc f4 98 5e 3d
       -0.035685256 0.07018291 -0.009704457 0.054345086
000300 ea 5c 09 be d2 8c 44 be e4 54 7b bd f4 4f 26 be
       -0.1341435 -0.19194344 -0.061360255 -0.16241437
000310 08 03 a2 bd 84 b4 95 bd 7f 54 c8 3c 21 ca 3a 3e
       -0.079107344 -0.07309821 0.024454353 0.18241169
000320 42 38 f9 3c 47 d9 fd bc 53 02 d7 bd ca a7 38 3c
       0.030422334 -0.030987395 -0.1049849 0.011270473
000330 24 2a 6f 3d 50 25 d3 3b 56 ad 29 be 42 55 0e 3d
       0.058389798 0.006443657 -0.16570029 0.034749277
000340 01 92 56 bd 7f 38 c2 bd 6c 0f 39 be 53 b0 1d be
       -0.052385334 -0.09483432 -0.18072289 -0.15399294
000350 c2 8b e6 bd c0 8a 16 be f5 21 f4 bd d2 81 f7 bd
       -0.112571254 -0.14701366 -0.11920539 -0.12085308
000360 8a 48 89 bd d3 a8 cb bd b3 70 34 bd f2 aa 1c 3e
       -0.06703289 -0.0994431 -0.04405279 0.15299585
000370 eb 1f 96 3d 19 f4 17 be b1 e4 72 bd 3b a7 b8 b9
       0.073303066 -0.1483921 -0.05930013 -0.0003521981
000380 6f 61 f2 bd 82 57 af bb cc cd 83 3c ca d6 59 be
       -0.1183499 -0.005351008 0.016089343 -0.21273342
000390 c3 45 45 be c2 66 6a bd 19 94 f8 bc 17 c5 3b bd
       -0.19264893 -0.057226904 -0.030344056 -0.045842256
0003a0 ba 78 90 bc 33 21 79 bd ae db 7c bc 84 65 51 3d
       -0.017635692 -0.060822677 -0.015433235 0.051122203
0003b0 3c e5 9e bd 99 18 a9 bc 8b c0 de bd bf 63 35 be
       -0.07758567 -0.020641612 -0.108765684 -0.17713831
0003c0 d1 bf d9 bd 24 2e 80 bd 29 90 f3 bd 97 d1 26 3d
       -0.10632289 -0.062588006 -0.11892731 0.040727224
0003d0 43 a6 1e bd a7 13 55 be a5 2a a0 bc 1b 82 41 be
       -0.03873278 -0.20808278 -0.019551584 -0.18897288
0003e0 51 5c a9 bc c0 ca e5 3d 8e d8 0e bd c9 bf b1 3c
       -0.020673903 0.11220312 -0.03487449 0.021697896
0003f0 1a 38 40 be 5d 06 bf bc 6a 77 e8 bd 17 f7 2f be
       -0.18771401 -0.023318464 -0.113509014 -0.17184101

bn1.weight f4 [128]
000000 b4 ee 6c 3f 95 aa 83 3f 3c 03 55 3f 05 aa 76 3f
       0.9255173 1.0286433 0.8320806 0.9635318
000010 71 e5 7a 3f e2 9b 7b 3f d5 21 75 3f 86 2b 80 3f
       0.9800635 0.98284733 0.9575475 1.0013282
000020 41 19 7d 3f 0e e9 7d 3f 2d ec 61 3f 5a 33 64 3f
       0.9886666 0.9918374 0.88251 0.89140856
000030 3d 5c 70 3f f7 10 79 3f be 54 79 3f 49 9f 71 3f
       0.93890744 0.9729151 0.9739493 0.94383675
000040 54 d6 50 3f 83 01 81 3f 55 e4 78 3f b8 8a 5f 3f
       0.8157704 1.0078586 0.9722341 0.87321043
000050 90 35 55 3f b3 c0 7e 3f 44 c2 6f 3f 27 ab 6d 3f
       0.83284855 0.99512786 0.936558 0.9283928
000060 75 e0 64 3f 29 9c 7b 3f e4 99 70 3f 2d 45 61 3f
       0.89404994 0.98285156 0.9398482 0.8799618
000070 ad 25 57 3f db fe 5f 3f 4a 02 76 3f 63 56 7b 3f
       0.84041864 0.87498254 0.9609724 0.9817869
000080 d8 3c 7c 3f 19 c0 6b 3f b6 65 54 3f db c7 64 3f
       0.9853034 0.9208999 0.829677 0.89367455
000090 fb 58 57 3f 69 c4 73 3f f8 1b 6b 3f 45 dd 77 3f
       0.8412015 0.95221573 0.9183955 0.96822006
0000a0 89 f3 78 3f 44 d4 70 3f 3d 9a 81 3f ea c7 67 3f
       0.97246605 0.9407389 1.0125195 0.9053942
0000b0 f1 a6 78 3f cc 63 67 3f b1 f5 78 3f 61 09 7e 3f
       0.9712973 0.9038665 0.97249895 0.9923306
0000c0 4c 6e 73 3f 1c a5 65 3f de 1b 70 3f 3a 8a 72 3f
       0.95090175 0.8970506 0.9379252 0.94742167
0000d0 9a 15 5d 3f f0 fe 7c 3f ad b2 86 3f cc 69 7a 3f
       0.86361086 0.98826504 1.0523278 0.97817683
0000e0 fb 7e 77 3f d7 44 4e 3f ab 24 4e 3f 4f 68 77 3f
       0.9667813 0.8057379 0.805247 0.9664354
0000f0 c4 4a 7b 3f a8 54 72 3f 01 a2 3d 3f df 07 84 3f
       0.9816096 0.94660425 0.74075323 1.0314902
000100 6c cf 68 3f 90 c8 72 3f db 74 67 3f c0 37 6f 3f
       0.909415 0.94837284 0.9041268 0.9344444
000110 c5 f3 7f 3f 53 26 81 3f a1 4f 7e 3f 6b 1f 68 3f
       0.9998134 1.0089821 0.99340254 0.9067294
000120 5a 18 69 3f 98 7b 7e 3f f9 06 59 3f 46 0e 65 3f
       0.9105278 0.9940734 0.84776264 0.89474905
000130 e1 06 61 3f d4 71 77 3f ae 4e 69 3f 48 54 80 3f
       0.8790112 0.9665806 0.9113568 1.0025721
000140 12 06 74 3f ca ef 52 3f e9 18 78 3f e8 40 69 3f
       0.9532176 0.8239714 0.9691301 0.91114664
000150 dc e8 81 3f d4 df 76 3f d9 f3 53 3f f4 46 73 3f
       1.0149188 0.96435285 0.82793957 0.9503014
000160 2a 4d 67 3f 73 c3 79 3f c1 a0 78 3f 88 9b 6b 3f
       0.9035212 0.97563857 0.9712029 0.92034197
000170 ae ce 83 3f 29 df 80 3f 15 cf 74 3f e9 a5 5f 3f
       1.0297449 1.0068103 0.9562848 0.87362534
000180 47 11 6b 3f dd e0 4f 3f aa 1e 6c 3f 28 a2 78 3f
       0.9182324 0.8120249 0.9223429 0.9712243
000190 23 e8 59 3f 96 47 54 3f 65 92 80 3f c6 f7 73 3f
       0.8511984 0.8292173 1.0044676 0.9529995
0001a0 29 87 6f 3f 29 74 64 3f 11 bd 67 3f 1b 38 6f 3f
       0.93565613 0.89239746 0.9052287 0.93444985
0001b0 14 c5 6f 3f b8 1a 56 3f 23 ae 5f 3f 20 d1 6e 3f
       0.9366009 0.8363452 0.87375087 0.9328785
0001c0 4b f6 47 3f fc 3b 70 3f 21 7e 6f 3f f9 48 74 3f
       0.7811019 0.9384153 0.9355183 0.9542385
0001d0 f6 4c 6b 3f af 3c 84 3f 8e fb 5e 3f 0a bd 60 3f
       0.9191431 1.0331019 0.8710259 0.8778845
0001e0 e1 96 78 3f a4 c6 69 3f 9b 08 5d 3f 3d 20 64 3f
       0.9710522 0.91318727 0.86341256 0.8911169
0001f0 4c 80 5f 3f 3b e0 75 3f 63 76 75 3f 8b a2 82 3f
       0.8730514 0.96045274 0.9588377 1.0205854

bn1.bias f4 [128]
000000 db 1e ca bb 7b 0f b7 3a bb 35 c5 bd 31 d7 d5 3c
       -0.006168229 0.0013966406 -0.09629389 0.026103588
000010 a2 0b 2e 3d d8 2b a6 3d b9 12 0f 3e d2 44 a5 3d
       0.042491563 0.08113831 0.13971986 0.08069767
000020 2c d2 42 3c 8b 2a ed bc ad 55 49 bc 5c bc 42 bd
       0.011890929 -0.02895095 -0.012288493 -0.047542915
000030 77 cd b4 3b d0 be 85 bd 84 be 8c bc 20 4b b1 bc
       0.0055176574 -0.06530535 -0.017180689 -0.021642268
000040 ef 6b a0 bc 1d 36 b2 bd 67 ba ed 3c c5 8e ad 3d
       -0.019582717 -0.087017275 0.029019548 0.08474497
000050 20 52 3c bd 7f 58 96 3b de 50 7f bd f8 ac b8 bd
       -0.045976758 0.0045881863 -0.06233298 -0.09017366
000060 cd 94 5d 3c 03 ba 7a bd b2 b0 5c bd d6 b0 a8 3c
       0.013524246 -0.06121255 -0.053879447 0.020592134
000070 22 92 ca 3d 49 0f 75 bd 1b 9c ab 3d a7 31 db 3c
       0.09891154 -0.05982903 0.08379384 0.026757075
000080 2c f6 d1 bc ab c4 e5 bd 1b 45 cb bd ef 31 2f bd
       -0.02563008 -0.11219152 -0.0992529 -0.04277223
000090 36 d6 5a 3b ef 46 35 bd ce 47 91 bc 67 48 6e 3d
       0.003339184 -0.0442571 -0.017734434 0.058174517
0000a0 95 2a eb bd df f1 34 3d da ef 78 bc 2c 7b 5b bd
       -0.11482731 0.04417598 -0.015193904 -0.053584263
0000b0 b4 81 9f bb 4e 3d 27 bd 6d c2 10 3d dd 7a 94 bc
       -0.0048677567 -0.04082995 0.03534167 -0.018124992
0000c0 bb 7a 82 b9 1f 92 34 bd 9d b0 d7 bc 31 75 3a bd
       -0.00024886974 -0.044084664 -0.026329333 -0.04552192
0000d0 04 07 ab bd a3 3a dd 3c 91 fb 9c bd 70 07 57 bd
       -0.083509475 0.0270055 -0.0766517 -0.052497327
0000e0 80 7c 01 3e bf ba a8 bd 5e da c3 bd a2 98 54 bd
       0.12645149 -0.08238744 -0.095631346 -0.051903374
0000f0 2c 2a 7e 3d 7c d6 0c be b1 d9 76 bd 4f 86 49 3d
       0.062051937 -0.13753694 -0.0602662 0.049200352
000100 9e 8b ed bd f8 44 14 3d eb ae 76 3d 88 19 39 be
       -0.115988955 0.036198586 0.06022541 -0.18076146
000110 03 dd 15 bd b7 82 31 bd 59 4c 97 3d b8 aa e9 bc
       -0.036587726 -0.04333755 0.07387609 -0.028523788
000120 9e ba aa bd 19 f6 69 3c 8d 15 b0 bd 77 bd 87 bd
       -0.08336376 0.014279866 -0.085978605 -0.066279344
000130 80 44 32 3d 07 a7 8f bc d8 5a ad 3d 1f 41 2f 3d
       0.043522358 -0.0175357 0.08464593 0.042786714
000140 0f 4c 19 bd 5a 84 9e 3d e6 64 b6 3c aa e0 2b 3d
       -0.03742605 0.07740088 0.022264909 0.041962303
000150 c5 7f eb ba 7e 13 a7 3b e5 cb 53 bd 06 89 5a ba
       -0.0017967155 0.005098759 -0.05170812 -0.0008336458
000160 8a 2c b4 bd b4 7c 2c bd 97 e6 f4 3a a5 cb a7 3d
       -0.08797558 -0.042111114 0.0018684444 0.08193139
000170 25 ff 01 be 48 b2 02 3d 0c a9 45 3d bc f6 22 bd
       -0.12694986 0.031908303 0.04825692 -0.039786085
000180 1c 80 b6 bb 5f df f5 3c a1 ec 3f bc fe 1a 94 bd
       -0.005569471 0.030013738 -0.011714132 -0.07231711
000190 6c 6e a2 ba 39 e0 03 be ae dd 5c bd 7b 7d 8e 3c
       -0.0012392527 -0.12878503 -0.053922348 0.017393818
0001a0 03 cb 60 3c c8 eb 46 3d 50 b8 37 3d 88 47 94 bb
       0.013720277 0.048564702 0.04485351 -0.0045251288
0001b0 9c c0 f9 3d 98 1e 7d bd 8d 26 31 3d 0a f3 5a 3c
       0.121949404 -0.061796755 0.043249656 0.013363609
0001c0 b0 89 39 3d ee e3 03 bd 24 00 91 3c da bf 31 bd
       0.045297325 -0.032199793 0.017700262 -0.043395855
0001d0 9b 1f eb bc 38 31 c2 3b 61 ba 47 bd 6c 1f 34 3d
       -0.028701594 0.0059262775 -0.04876173 0.04397528
0001e0 63 c2 e0 bd 7e 59 b6 3d 3d 62 77 bd c7 06 f3 bc
       -0.10974576 0.08903788 -0.06039642 -0.029666318
0001f0 c2 f4 f0 bb d8 9d aa 3c 17 dc 36 3c f4 ba a7 3d
       -0.007353396 0.020827219 0.011160872 0.08189955

bn1.running_mean f4 [128]
000000 e4 fe 86 bd a6 2b 6e bd e4 39 07 bd b6 a6 1e 3c
       -0.06591585 -0.058147095 -0.033014193 0.009683302
000010 86 16 2c bc 66 1c 95 bc 34 93 28 3c 3e 07 96 bd
       -0.010503417 -0.018202018 0.010289002 -0.073256
000020 00 12 e5 bc b7 2a fd 3b e2 f8 46 39 ec 1b 45 bb
       -0.027962685 0.0077260393 0.00018975468 -0.0030076457
000030 02 60 7a 3d 1c 91 7c 3c 55 2f da 3a 64 28 f0 bb
       0.061126716 0.015415456 0.0016646186 -0.0073290337
000040 2a d2 9f 3d aa 75 08 bc 94 ef b3 bc 16 a6 26 3d
       0.078037575 -0.008328835 -0.021964826 0.040685736
000050 3c 7c 76 3d 26 f2 17 3d 62 51 2d bc af e1 ed bc
       0.060177073 0.037096165 -0.010578485 -0.029038278
000060 dc d9 bd 3c a2 ab 02 bc 3d 75 4b 3b d2 6a a5 bc
       0.023175173 -0.007975491 0.0031045221 -0.020192537
000070 c5 20 df 3b 16 f4 95 bb 0e 6c 09 3d df aa 82 bc
       0.0068093264 -0.0045762165 0.033550315 -0.015950618
000080 a6 57 4a bc 68 a0 c9 bc 28 d3 07 bc 9f fc 4d bc
       -0.012349999 -0.02461262 -0.00829009 -0.012572437
000090 14 c2 5c bc 84 b3 08 bc d0 9a b7 b9 3a a6 f8 3c
       -0.013474006 -0.008343581 -0.00035019824 0.0303527
0000a0 52 f7 2c bd 23 3f 13 3c 03 7b f5 3c 52 0b b5 bb
       -0.04222805 0.008987221 0.029965883 -0.005525031
0000b0 68 5b a4 3c ea 71 23 bc b5 4f d3 3b f5 d5 1e bc
       0.020063117 -0.00997589 0.006448711 -0.009694566
0000c0 05 c8 0b be 39 4e e2 bc 56 15 e4 3b 73 8b 26 bd
       -0.1365052 -0.02762519 0.0069605513 -0.040660333
0000d0 48 01 66 bc 41 59 d2 3c 85 8d 6d bc 00 47 09 bd
       -0.014038391 0.025677325 -0.014499073 -0.033514977
0000e0 4c 47 93 3d 2b c2 88 bb 40 cf 0c bc 96 cf e6 bc
       0.07191333 -0.0041735373 -0.008594334 -0.028175157
0000f0 9e 15 ea 3b e2 72 80 bd f1 6a 84 bc f0 8b 6a 3d
       0.0071436903 -0.06271912 -0.016164275 0.05726236
000100 15 4b c1 3a 40 9e 82 3c 6e 13 96 3c 15 93 0b 3d
       0.0014747108 0.0159446 0.018319812 0.034075815
000110 bb 69 dd ba 4c 99 6a bc c6 8a d6 bc 7b 17 00 be
       -0.0016892472 -0.014318775 -0.02618922 -0.12508957
000120 40 98 4d bd ab 7e 84 bb 0b 2d 17 bd e6 44 4f 3c
       -0.050194025 -0.0040434203 -0.03690819 0.012650704
000130 12 52 ef 3d 25 13 50 ba 74 82 1b 3d ff c3 ea 3c
       0.116855755 -0.0007937423 0.037966207 0.028657911
000140 12 74 61 3c 6b c4 84 3b 3e 8c b0 bb ad cf 2f 3c
       0.0137605835 0.004051735 -0.005387812 0.010730666
000150 64 9e 1f bd 9c 94 39 bd ec 7f d8 bb f3 42 06 3d
       -0.038969412 -0.04530774 -0.0066070464 0.03277869
000160 d6 2d 8d bc bc 47 92 bb a6 34 5b bc 46 76 af 3d
       -0.01723377 -0.004464118 -0.013379252 0.08567481
000170 ea 24 e7 bc 9b d0 eb bc 19 df 34 3d f1 5e c0 bc
       -0.028215844 -0.028785994 0.044158075 -0.023482772
000180 9f d7 17 39 eb bb 56 3d c2 ee 4e bd 96 74 6c bc
       0.00014480807 0.052425306 -0.050520666 -0.014432093
000190 d3 60 ce 3a df f1 8a bc 0e 75 2f 3c 2a 3d 20 b9
       0.0015745409 -0.016961036 0.01070906 -0.00015281574
0001a0 2d d2 22 bc f4 34 56 3c 2c 9a a0 3b cd b6 b1 bb
       -0.009937805 0.013074148 0.004901191 -0.005423403
0001b0 a4 f6 80 3c e9 6c 6b bc 7b d3 e3 3c 33 a7 f0 3c
       0.015742607 -0.014369228 0.027810803 0.029376602
0001c0 c7 24 8f 3c b0 44 49 bc f6 c3 3a bb d7 93 30 bd
       0.017473591 -0.012284443 -0.002849815 -0.04310974
0001d0 08 2b 35 3c 42 5a 01 bd 41 94 9b bb d2 a4 36 3c
       0.011057623 -0.031580217 -0.004747898 0.011147695
0001e0 62 17 2d bc 53 61 c3 3d 42 1d 03 be 2f 53 92 3d
       -0.010564657 0.095400475 -0.1280413 0.07144772
0001f0 fe 42 c0 bb d3 41 0d 3c 2c 5e 6e bb 11 6a 6a 3d
       -0.005867361 0.008621651 -0.0036372049 0.05723006

bn1.running_var f4 [128]
000000 17 57 de 37 fa 17 6b 36 b4 1e 3b 36 8d 49 b5 36
       2.6505017e-05 3.5031685e-06 2.7883043e-06 5.402783e-06
000010 a8 79 2f 36 50 38 32 38 3f 42 30 36 29 1f fa 38
       2.6147845e-06 4.2490952e-05 2.6264604e-06 0.00011926733
000020 2d e1 8f 37 85 26 d4 35 78 3b e3 34 f2 08 5d 34
       1.7151784e-05 1.5806442e-06 4.2325314e-07 2.0585483e-07
000030 2e 2e 11 37 af c3 f5 35 1e 1a 4c 35 53 cd c3 35
       8.6534255e-06 1.8310874e-06 7.603393e-07 1.4588389e-06
000040 aa 66 99 37 b6 ff 37 36 c3 21 04 36 28 17 a7 36
       1.8286828e-05 2.7417968e-06 1.9689185e-06 4.9796836e-06
000050 3e 7a 7a 37 fb ec 14 36 21 8c ef 34 6d 44 08 36
       1.4929623e-05 2.219166e-06 4.4619176e-07 2.0305408e-06
000060 8c 7c dc 36 47 f0 97 35 63 c9 24 36 e2 90 17 36
       6.57101e-06 1.1320307e-06 2.4555127e-06 2.2585086e-06
000070 c2 6f e9 34 6e 7c b2 34 89 8c ba 36 94 42 36 36
       4.3480946e-07 3.3245618e-07 5.5595924e-06 2.7158867e-06
000080 93 9d 1d 36 cf 89 99 36 fd 4f a4 34 8d b6 bb 35
       2.3486543e-06 4.5757984e-06 3.060558e-07 1.3985715e-06
000090 13 74 85 34 a2 c1 83 35 ad d9 f5 34 da 51 38 37
       2.4857636e-07 9.816615e-07 4.5793186e-07 1.0986312e-05
0000a0 02 ae 19 37 b9 90 8a 35 0a e8 25 38 c7 f6 56 35
       9.160025e-06 1.0323921e-06 3.955517e-05 8.008032e-07
0000b0 13 fd 69 36 c7 f0 b0 35 e7 b7 25 36 2a 20 42 37
       3.4867014e-06 1.3183097e-06 2.4693961e-06 1.157079e-05
0000c0 e9 8c fa 39 48 cd 61 36 a9 23 c7 36 63 4f a7 36
       0.00047788702 3.3647102e-06 5.9348135e-06 4.9862297e-06
0000d0 36 83 2b 36 04 82 af 36 43 af 94 36 a9 60 3c 36
       2.555736e-06 5.2305422e-06 4.431147e-06 2.8070447e-06
0000e0 7e dc fc 36 09 93 eb 33 7d 4c 19 34 93 e0 3f 36
       7.535854e-06 1.0969786e-07 1.4277062e-07 2.8591937e-06
0000f0 d0 d6 e8 35 4d d4 44 37 b8 84 3c 34 73 11 29 37
       1.7347866e-06 1.17319405e-05 1.7557147e-07 1.0077248e-05
000100 cc 83 61 36 74 f6 d1 35 64 4f 97 35 4e 78 d5 35
       3.3604329e-06 1.5643441e-06 1.1273482e-06 1.590475e-06
000110 37 74 b1 35 a4 c0 2a 36 f2 be 29 37 e0 ae 21 39
       1.3221351e-06 2.5444106e-06 1.0117643e-05 0.00015419303
000120 cd af d0 36 8e c5 f9 35 8b 75 50 36 45 68 b1 37
       6.219349e-06 1.8609442e-06 3.1062834e-06 2.1148599e-05
000130 f7 5c c1 38 40 0e 8d 36 20 db 5c 36 0a 31 19 38
       9.220273e-05 4.2037864e-06 3.2910102e-06 3.6523714e-05
000140 5b 7f 2b 37 77 8c 41 35 e2 95 6e 35 bf fa da 35
       1.02220465e-05 7.2102506e-07 8.888002e-07 1.6315242e-06
000150 3e ba 27 36 2f b6 48 36 df 98 9c 34 92 17 50 36
       2.4993346e-06 2.9908367e-06 2.9168493e-07 3.1008135e-06
000160 5c 63 fe 36 8e 1d 92 35 86 ea 53 36 2a c8 89 38
       7.581357e-06 1.0886449e-06 3.157796e-06 6.5699525e-05
000170 e9 1a 1b 37 bc 97 4a 36 8a fd a1 36 39 41 2b 36
       9.244985e-06 3.0188667e-06 4.8276897e-06 2.551895e-06
000180 b1 e6 a4 36 85 bc a1 36 99 c0 3b 37 57 ed 40 35
       4.914437e-06 4.8201205e-06 1.1190911e-05 7.187095e-07
000190 f7 31 6f 34 66 7f ce 34 15 7a 70 36 40 ae 1c 36
       2.2276787e-07 3.8463185e-07 3.5833848e-06 2.3347238e-06
0001a0 0e 1e 4e 37 ed 7f 8d 35 2d 55 01 36 1a cd 12 37
       1.22855545e-05 1.054255e-06 1.9272077e-06 8.750032e-06
0001b0 0b de 73 35 a6 e2 02 36 57 f6 20 36 ea 3f 9d 35
       9.084767e-07 1.9503436e-06 2.3985247e-06 1.1716013e-06
0001c0 cc 54 01 35 f4 98 7d 36 62 e0 5c 35 05 04 ef 35
       4.817964e-07 3.7788968e-06 8.2282907e-07 1.7808057e-06
0001d0 be c7 c7 35 29 7e 19 36 41 09 95 35 99 c9 ab 33
       1.4884788e-06 2.2872212e-06 1.1104058e-06 7.9994784e-08
0001e0 ec 7b 11 35 4f 96 da 38 20 2f 24 38 e7 32 3a 37
       5.419704e-07 0.00010423047 3.9144536e-05 1.1098316e-05
0001f0 7f cc f0 32 90 6e b8 36 72 af 9f 36 85 f3 8d 36
       2.8032671e-08 5.4964985e-06 4.758994e-06 4.230477e-06

lstm2.weight_ih_l0 f4 [256, 128]
000000 3d 01 28 be 24 a8 2c be ff 91 c4 bd 41 d6 52 bd
       -0.16406722 -0.16861016 -0.09598159 -0.05147386
000010 56 6d 13 be ff 0b 38 be 47 d0 89 bd 3c 34 ac bc
       -0.14397177 -0.17973326 -0.06729179 -0.021021001
000020 5a d4 36 bc 62 f1 0b bd e0 61 da bc 25 b3 d4 3c
       -0.011159027 -0.034165747 -0.026657999 0.025964329
000030 e4 17 1e 3e 8b 43 4f be 12 a1 63 3d 89 d7 fa 3d
       0.15438801 -0.2024061 0.05557353 0.12248141
000040 58 b9 ad bc 79 83 ca 3c 43 16 ad 3d 62 a8 14 3e
       -0.021206543 0.024720894 0.08451512 0.14517358
000050 c8 9c 56 3d d1 01 6a 3d 15 77 1a 3d d9 75 99 bd
       0.052395612 0.05713064 0.03771122 -0.07493181
000060 45 1d 2a 3d f1 92 f6 3d 0d dc 47 3e a7 2d 1d 3e
       0.04153182 0.120397456 0.19517536 0.15349446
000070 b2 88 40 bd c9 f8 0f bd 7a 1b 8a bc cc cb db bd
       -0.047005363 -0.03514937 -0.016858805 -0.107322305
000080 57 16 62 3e 35 f0 ea bd 5f fd 2c bd e5 26 b0 bd
       0.22078834 -0.11471597 -0.04223382 -0.086011685
000090 74 53 ff bc 99 16 cb bd d8 72 c1 bd 75 88 1c 3e
       -0.031167723 -0.099164195 -0.09445733 0.15286429
0000a0 e2 e1 2c bd d0 05 07 3e 87 58 a3 3d 39 3c 74 bc
       -0.042207606 0.13185811 0.079758696 -0.014906936
0000b0 4e 67 ba bc d8 bc 60 3d bf e5 16 3d 42 77 07 3e
       -0.022754338 0.054867595 0.036840197 0.13229087
0000c0 80 ef 34 be 95 44 54 be 2e 57 17 be b0 1d 5e be
       -0.17669487 -0.20729287 -0.1477935 -0.21691012
0000d0 98 6b 1d 3e aa 3f 1b 3e 09 94 02 3e c4 89 01 be
       0.15373075 0.15161005 0.12751783 -0.1265021
0000e0 1a 68 d5 bb ca 6e e6 bc 4e 8f 16 3e 26 72 10 be
       -0.006512654 -0.028129 0.14703104 -0.14106044
0000f0 54 ae cf bc 2a d1 62 bd 47 9c fa 3d 83 0c b2 bd
       -0.02535168 -0.055375256 0.12236839 -0.08693793
000100 28 d2 00 be 43 c7 06 3e 68 e1 0d 3e c2 43 63 3d
       -0.12580168 0.1316195 0.13855517 0.05548454
000110 e4 ee 25 3e 60 d4 fe 3c 7e d9 98 3d b2 bb 21 be
       0.16204411 0.031107128 0.07463358 -0.15794256
000120 91 04 f2 bd 04 be 74 bd 0b 17 86 ba 65 71 1e 3e
       -0.11817277 -0.059751526 -0.0010230256 0.15472944
000130 d4 ed a1 3d 54 53 dc 3d ab db 93 3d f4 81 39 be
       0.0790669 0.10758081 0.07219633 -0.1811598
000140 97 83 5f 3c 00 81 1a be 26 52 d9 3d 44 ef 40 be
       0.013642213 -0.15088272 0.10611372 -0.18841273
000150 47 d9 0b 3d ce ba 91 bd f8 0d 1e 3e 62 82 93 3d
       0.03414276 -0.07115708 0.15435016 0.07202603
000160 7b 92 98 3d 8e 39 ec 3d 62 dd 74 bd d3 c0 54 bc
       0.07449814 0.11534415 -0.05978144 -0.012985426
000170 37 eb 4d be a6 3c 98 bd 94 6c 9e bd 2a 5a 05 3e
       -0.20109259 -0.07433443 -0.077355534 0.13022676
000180 13 b8 29 be 9b 9c 13 bd ce cb 74 3d 10 2e b7 3d
       -0.16574125 -0.036038022 0.059764676 0.089443326
000190 9f cf ad bd 36 3c 19 be 66 98 1a bc 08 29 fd bc
       -0.08486866 -0.14964375 -0.009435749 -0.030903354
0001a0 3d 48 d8 3d f2 96 2d 3d 4a 04 5d 3d 95 55 46 3e
       0.10560653 0.04238028 0.05395917 0.19368584
0001b0 6d 98 2e 3d 81 cd 9c bd 0d 37 81 3d 24 b9 8b 3c
       0.042625833 -0.07656384 0.06309328 0.017056055
0001c0 72 1c 98 bd f6 ab ae 3d 06 62 fc 3b b3 2f 37 be
       -0.074273005 0.08528893 0.007702115 -0.1788929
0001d0 02 aa 13 3b 80 55 bd 3d 57 ac bb 3d cf ae 97 bd
       0.0022531752 0.092448235 0.091637306 -0.07406389
0001e0 52 f3 3c 3b 51 20 1b 3e ed 76 ff bd 4f 82 bf bc
       0.0028831554 0.15149046 -0.12473855 -0.023377566
0001f0 f0 7c 99 3d ee 60 2f be df 1b 44 3c 60 2d c0 3d
       0.07494533 -0.1712682 0.011969536 0.093836546
000200 a7 45 38 3e 80 58 a6 3d 60 7f 3a be 7f 52 87 bd
       0.1799532 0.08122349 -0.18212652 -0.06607532
000210 a3 b7 93 3d 39 a8 1a bd f2 1a 8c 3d c2 95 d9 3d
       0.0721276 -0.037758086 0.06841077 0.10624267
000220 02 8a 17 bc 9a dc 4e be 0d 01 e8 bd 83 78 6d bd
       -0.009249212 -0.2020134 -0.113283254 -0.057976257
000230 32 6e 29 bc aa 36 82 bd cc dd 94 3d a5 e3 6d bd
       -0.010341214 -0.063580826 0.07268867 -0.058078427
000240 24 c3 20 be 6c bd 02 be 20 29 16 3d 3b 67 9c bd
       -0.1569944 -0.12767571 0.036660314 -0.07636877
000250 0f 11 ec bd ef 45 f2 bd 1b 70 8f 3c 13 97 07 3e
       -0.11526691 -0.11829745 0.01750951 0.13241224
000260 61 6c 6b 3c 41 34 c7 bc c5 5a ad bd 60 83 99 bb
       0.014369101 -0.024316909 -0.084645785 -0.0046848506
000270 b6 bc 3c bb 15 d4 e2 3d 79 e6 b7 bd e7 05 5d 3b
       -0.0028799004 0.11075608 -0.08979506 0.0033725442
000280 bf 83 a0 3c e8 fd a2 bd 7c 74 23 3e f8 a0 f1 3d
       0.019594071 -0.07958585 0.15962404 0.117982805
000290 97 ea 35 3e 3b b7 7c bd 38 75 6d 3d 48 95 bb bd
       0.1776527 -0.06169818 0.057973117 -0.091593325
0002a0 f3 70 c0 3d 77 36 33 3d 23 e4 93 3d ca c5 f5 bd
       0.09396543 0.043753114 0.07221248 -0.12000616
0002b0 e6 7f 0c be 7c 93 fd 3d cf 7e 63 bc 7f 42 23 bd
       -0.13720664 0.12381646 -0.013885214 -0.039858337
0002c0 d2 76 23 3e b6 62 11 3d 04 a6 18 be 65 94 b5 3d
       0.15963295 0.03549453 -0.1490708 0.08866195
0002d0 bd 18 00 3e fa 95 0a bd 3c fc e0 bc 75 45 85 bd
       0.12509437 -0.033834435 -0.027464025 -0.065073885
0002e0 1a 5f e5 3c 89 8a 46 3d 2c bd da 3d 83 d9 03 3c
       0.02799945 0.04847196 0.10680613 0.008047464
0002f0 64 5a ab 3c 5c 3d 13 bd 81 37 d4 3d a7 4a 1e 3d
       0.020917125 -0.03594719 0.10362149 0.038645413
000300 74 b1 8e bc 25 73 c2 bd 4e 94 56 3d a9 47 1b be
       -0.0174186 -0.09494618 0.052387528 -0.15164055
000310 97 fd 3d 3d 3f d0 a6 bd 51 04 a2 3d 56 b0 20 bd
       0.04638442 -0.081451885 0.079109795 -0.039230667
000320 b8 e1 e8 bb 56 73 3a 3e 18 bd f5 bc 86 07 29 3e
       -0.007106986 0.1820806 -0.029997393 0.16506776
000330 23 ad 3f bd d8 c8 ad 3d c2 07 c8 bd 88 40 2b bc
       -0.046795975 0.084855735 -0.09767105 -0.010452397
000340 64 40 22 be d9 68 9d 3d 4c ae 18 be bc 24 c4 bb
       -0.15844876 0.07686014 -0.14910239 -0.0059858244
000350 58 c2 99 3d 43 99 01 bd ef 55 6e 3d a0 ae 85 bd
       0.07507771 -0.031640302 0.05818742 -0.06527448
000360 c1 3e 0c ba a6 52 af 3d 71 60 c5 bd 9b fc 08 3d
       -0.0005349927 0.08560686 -0.09637535 0.03344403
000370 d8 70 20 bd af d3 c4 3d c3 04 98 bd 17 c8 be 3d
       -0.039170116 0.09610688 -0.07422783 0.09315508
000380 0b e8 9a bc 16 e4 89 ba 64 61 1c 3e c6 c9 85 bd
       -0.018909475 -0.0010520245 0.15271527 -0.06532626
000390 58 65 fd bb 7f 04 85 bd 59 18 cd 3d 83 19 ef bc
       -0.0077330284 -0.06494998 0.100144096 -0.02918697
0003a0 3f dd e4 3b 8b 2f 0f 3c 0a 4f 10 3e 17 a7 a4 bc
       0.0069843824 0.0087393625 0.14092651 -0.020099206
0003b0 58 ca 01 bd d7 16 4e 3e 8c 01 7e bd 8f 95 30 3d
       -0.03168711 0.201259 -0.062013194 0.04311138
0003c0 99 f0 46 be d9 3b 60 bc 9a 1e bb 3d 79 3c 66 3c
       -0.19427718 -0.013686144 0.09136696 0.014052504
0003d0 af aa b7 bb bb 60 2a bc fb 3f 3e 3e 6e 12 cf bd
       -0.005605064 -0.010399039 0.18579094 -0.10110937
0003e0 e0 e9 13 be 06 95 33 be 98 91 6f bd ef 57 73 bd
       -0.14444685 -0.17537317 -0.05848846 -0.059410032
0003f0 9a e1 60 bd 9c 86 02 bc af 88 c7 3d 01 ba cf bd
       -0.05490265 -0.007966664 0.09742867 -0.10142899
